<?xml version="1.0" ?>
<net name="facial-landmarks-35-adas-0002" version="10">
	<layers>
		<layer id="0" name="data" type="Parameter" version="opset1">
			<data element_type="f16" shape="1,3,60,60"/>
			<output>
				<port id="0" precision="FP16">
					<dim>1</dim>
					<dim>3</dim>
					<dim>60</dim>
					<dim>60</dim>
				</port>
			</output>
		</layer>
		<layer id="1" name="data_mul_77447748/copy_const463_const" type="Const" version="opset1">
			<data element_type="f16" offset="0" shape="1,3,1,1" size="6"/>
			<output>
				<port id="1" precision="FP16">
					<dim>1</dim>
					<dim>3</dim>
					<dim>1</dim>
					<dim>1</dim>
				</port>
			</output>
		</layer>
		<layer id="2" name="Mul_/Fused_Mul_" type="Multiply" version="opset1">
			<input>
				<port id="0">
					<dim>1</dim>
					<dim>3</dim>
					<dim>60</dim>
					<dim>60</dim>
				</port>
				<port id="1">
					<dim>1</dim>
					<dim>3</dim>
					<dim>1</dim>
					<dim>1</dim>
				</port>
			</input>
			<output>
				<port id="2" precision="FP16">
					<dim>1</dim>
					<dim>3</dim>
					<dim>60</dim>
					<dim>60</dim>
				</port>
			</output>
		</layer>
		<layer id="3" name="data_add_77457750/copy_const465_const" type="Const" version="opset1">
			<data element_type="f16" offset="6" shape="1,3,1,1" size="6"/>
			<output>
				<port id="1" precision="FP16">
					<dim>1</dim>
					<dim>3</dim>
					<dim>1</dim>
					<dim>1</dim>
				</port>
			</output>
		</layer>
		<layer id="4" name="Add_/Fused_Add_" type="Add" version="opset1">
			<input>
				<port id="0">
					<dim>1</dim>
					<dim>3</dim>
					<dim>60</dim>
					<dim>60</dim>
				</port>
				<port id="1">
					<dim>1</dim>
					<dim>3</dim>
					<dim>1</dim>
					<dim>1</dim>
				</port>
			</input>
			<output>
				<port id="2" precision="FP16">
					<dim>1</dim>
					<dim>3</dim>
					<dim>60</dim>
					<dim>60</dim>
				</port>
			</output>
		</layer>
		<layer id="5" name="16041608_const" type="Const" version="opset1">
			<data element_type="f16" offset="12" shape="" size="2"/>
			<output>
				<port id="1" precision="FP16"/>
			</output>
		</layer>
		<layer id="6" name="16051609_const" type="Const" version="opset1">
			<data element_type="f16" offset="14" shape="" size="2"/>
			<output>
				<port id="1" precision="FP16"/>
			</output>
		</layer>
		<layer id="7" name="16061610_const" type="Const" version="opset1">
			<data element_type="f16" offset="12" shape="" size="2"/>
			<output>
				<port id="1" precision="FP16"/>
			</output>
		</layer>
		<layer id="8" name="16071611_const" type="Const" version="opset1">
			<data element_type="f16" offset="14" shape="" size="2"/>
			<output>
				<port id="1" precision="FP16"/>
			</output>
		</layer>
		<layer id="9" name="conv1/WithoutBiases/fq_input_0" type="FakeQuantize" version="opset1">
			<data levels="256"/>
			<input>
				<port id="0">
					<dim>1</dim>
					<dim>3</dim>
					<dim>60</dim>
					<dim>60</dim>
				</port>
				<port id="1"/>
				<port id="2"/>
				<port id="3"/>
				<port id="4"/>
			</input>
			<output>
				<port id="5" precision="FP16">
					<dim>1</dim>
					<dim>3</dim>
					<dim>60</dim>
					<dim>60</dim>
				</port>
			</output>
		</layer>
		<layer id="10" name="conv1/WithoutBiases/fq_weights_1/Convert_to_float/Cast_09675_const" type="Const" version="opset1">
			<data element_type="u8" offset="16" shape="16,3,3,3" size="432"/>
			<output>
				<port id="1" precision="U8">
					<dim>16</dim>
					<dim>3</dim>
					<dim>3</dim>
					<dim>3</dim>
				</port>
			</output>
		</layer>
		<layer id="11" name="conv1/WithoutBiases/fq_weights_1/Convert_to_float" type="Convert" version="opset1">
			<data destination_type="f16"/>
			<input>
				<port id="0">
					<dim>16</dim>
					<dim>3</dim>
					<dim>3</dim>
					<dim>3</dim>
				</port>
			</input>
			<output>
				<port id="1" precision="FP16">
					<dim>16</dim>
					<dim>3</dim>
					<dim>3</dim>
					<dim>3</dim>
				</port>
			</output>
		</layer>
		<layer id="12" name="conv1/WithoutBiases/fq_weights_1/Copy/out_low8266_const" type="Const" version="opset1">
			<data element_type="f16" offset="448" shape="1" size="2"/>
			<output>
				<port id="1" precision="FP16">
					<dim>1</dim>
				</port>
			</output>
		</layer>
		<layer id="13" name="conv1/WithoutBiases/fq_weights_1/Copy/out_high8267_const" type="Const" version="opset1">
			<data element_type="f16" offset="450" shape="1" size="2"/>
			<output>
				<port id="1" precision="FP16">
					<dim>1</dim>
				</port>
			</output>
		</layer>
		<layer id="14" name="16161620_const" type="Const" version="opset1">
			<data element_type="f16" offset="452" shape="16,1,1,1" size="32"/>
			<output>
				<port id="1" precision="FP16">
					<dim>16</dim>
					<dim>1</dim>
					<dim>1</dim>
					<dim>1</dim>
				</port>
			</output>
		</layer>
		<layer id="15" name="16171621_const" type="Const" version="opset1">
			<data element_type="f16" offset="484" shape="16,1,1,1" size="32"/>
			<output>
				<port id="1" precision="FP16">
					<dim>16</dim>
					<dim>1</dim>
					<dim>1</dim>
					<dim>1</dim>
				</port>
			</output>
		</layer>
		<layer id="16" name="conv1/WithoutBiases/fq_weights_1" type="FakeQuantize" version="opset1">
			<data levels="255"/>
			<input>
				<port id="0">
					<dim>16</dim>
					<dim>3</dim>
					<dim>3</dim>
					<dim>3</dim>
				</port>
				<port id="1">
					<dim>1</dim>
				</port>
				<port id="2">
					<dim>1</dim>
				</port>
				<port id="3">
					<dim>16</dim>
					<dim>1</dim>
					<dim>1</dim>
					<dim>1</dim>
				</port>
				<port id="4">
					<dim>16</dim>
					<dim>1</dim>
					<dim>1</dim>
					<dim>1</dim>
				</port>
			</input>
			<output>
				<port id="5" precision="FP16">
					<dim>16</dim>
					<dim>3</dim>
					<dim>3</dim>
					<dim>3</dim>
				</port>
			</output>
		</layer>
		<layer id="17" name="conv1/WithoutBiases" type="Convolution" version="opset1">
			<data dilations="1,1" output_padding="0,0" pads_begin="1,1" pads_end="1,1" strides="1,1"/>
			<input>
				<port id="0">
					<dim>1</dim>
					<dim>3</dim>
					<dim>60</dim>
					<dim>60</dim>
				</port>
				<port id="1">
					<dim>16</dim>
					<dim>3</dim>
					<dim>3</dim>
					<dim>3</dim>
				</port>
			</input>
			<output>
				<port id="2" precision="FP16">
					<dim>1</dim>
					<dim>16</dim>
					<dim>60</dim>
					<dim>60</dim>
				</port>
			</output>
		</layer>
		<layer id="18" name="data_add_77537758/copy_const469_const" type="Const" version="opset1">
			<data element_type="f16" offset="516" shape="1,16,1,1" size="32"/>
			<output>
				<port id="1" precision="FP16">
					<dim>1</dim>
					<dim>16</dim>
					<dim>1</dim>
					<dim>1</dim>
				</port>
			</output>
		</layer>
		<layer id="19" name="conv1/Fused_Add_" type="Add" version="opset1">
			<input>
				<port id="0">
					<dim>1</dim>
					<dim>16</dim>
					<dim>60</dim>
					<dim>60</dim>
				</port>
				<port id="1">
					<dim>1</dim>
					<dim>16</dim>
					<dim>1</dim>
					<dim>1</dim>
				</port>
			</input>
			<output>
				<port id="2" precision="FP16">
					<dim>1</dim>
					<dim>16</dim>
					<dim>60</dim>
					<dim>60</dim>
				</port>
			</output>
		</layer>
		<layer id="20" name="relu_conv1" type="ReLU" version="opset1">
			<input>
				<port id="0">
					<dim>1</dim>
					<dim>16</dim>
					<dim>60</dim>
					<dim>60</dim>
				</port>
			</input>
			<output>
				<port id="1" precision="FP16">
					<dim>1</dim>
					<dim>16</dim>
					<dim>60</dim>
					<dim>60</dim>
				</port>
			</output>
		</layer>
		<layer id="21" name="27442748_const" type="Const" version="opset1">
			<data element_type="f16" offset="448" shape="" size="2"/>
			<output>
				<port id="1" precision="FP16"/>
			</output>
		</layer>
		<layer id="22" name="27452749_const" type="Const" version="opset1">
			<data element_type="f16" offset="548" shape="" size="2"/>
			<output>
				<port id="1" precision="FP16"/>
			</output>
		</layer>
		<layer id="23" name="27462750_const" type="Const" version="opset1">
			<data element_type="f16" offset="448" shape="" size="2"/>
			<output>
				<port id="1" precision="FP16"/>
			</output>
		</layer>
		<layer id="24" name="27472751_const" type="Const" version="opset1">
			<data element_type="f16" offset="548" shape="" size="2"/>
			<output>
				<port id="1" precision="FP16"/>
			</output>
		</layer>
		<layer id="25" name="pool1/WithoutBiases/fq_input_0" type="FakeQuantize" version="opset1">
			<data levels="256"/>
			<input>
				<port id="0">
					<dim>1</dim>
					<dim>16</dim>
					<dim>60</dim>
					<dim>60</dim>
				</port>
				<port id="1"/>
				<port id="2"/>
				<port id="3"/>
				<port id="4"/>
			</input>
			<output>
				<port id="5" precision="FP16">
					<dim>1</dim>
					<dim>16</dim>
					<dim>60</dim>
					<dim>60</dim>
				</port>
			</output>
		</layer>
		<layer id="26" name="pool1/WithoutBiases/fq_weights_1/Convert_to_float/Cast_09677_const" type="Const" version="opset1">
			<data element_type="u8" offset="550" shape="16,16,3,3" size="2304"/>
			<output>
				<port id="1" precision="U8">
					<dim>16</dim>
					<dim>16</dim>
					<dim>3</dim>
					<dim>3</dim>
				</port>
			</output>
		</layer>
		<layer id="27" name="pool1/WithoutBiases/fq_weights_1/Convert_to_float" type="Convert" version="opset1">
			<data destination_type="f16"/>
			<input>
				<port id="0">
					<dim>16</dim>
					<dim>16</dim>
					<dim>3</dim>
					<dim>3</dim>
				</port>
			</input>
			<output>
				<port id="1" precision="FP16">
					<dim>16</dim>
					<dim>16</dim>
					<dim>3</dim>
					<dim>3</dim>
				</port>
			</output>
		</layer>
		<layer id="28" name="pool1/WithoutBiases/fq_weights_1/Copy/out_low8066_const" type="Const" version="opset1">
			<data element_type="f16" offset="448" shape="1" size="2"/>
			<output>
				<port id="1" precision="FP16">
					<dim>1</dim>
				</port>
			</output>
		</layer>
		<layer id="29" name="pool1/WithoutBiases/fq_weights_1/Copy/out_high8067_const" type="Const" version="opset1">
			<data element_type="f16" offset="450" shape="1" size="2"/>
			<output>
				<port id="1" precision="FP16">
					<dim>1</dim>
				</port>
			</output>
		</layer>
		<layer id="30" name="27562760_const" type="Const" version="opset1">
			<data element_type="f16" offset="2854" shape="16,1,1,1" size="32"/>
			<output>
				<port id="1" precision="FP16">
					<dim>16</dim>
					<dim>1</dim>
					<dim>1</dim>
					<dim>1</dim>
				</port>
			</output>
		</layer>
		<layer id="31" name="27572761_const" type="Const" version="opset1">
			<data element_type="f16" offset="2886" shape="16,1,1,1" size="32"/>
			<output>
				<port id="1" precision="FP16">
					<dim>16</dim>
					<dim>1</dim>
					<dim>1</dim>
					<dim>1</dim>
				</port>
			</output>
		</layer>
		<layer id="32" name="pool1/WithoutBiases/fq_weights_1" type="FakeQuantize" version="opset1">
			<data levels="255"/>
			<input>
				<port id="0">
					<dim>16</dim>
					<dim>16</dim>
					<dim>3</dim>
					<dim>3</dim>
				</port>
				<port id="1">
					<dim>1</dim>
				</port>
				<port id="2">
					<dim>1</dim>
				</port>
				<port id="3">
					<dim>16</dim>
					<dim>1</dim>
					<dim>1</dim>
					<dim>1</dim>
				</port>
				<port id="4">
					<dim>16</dim>
					<dim>1</dim>
					<dim>1</dim>
					<dim>1</dim>
				</port>
			</input>
			<output>
				<port id="5" precision="FP16">
					<dim>16</dim>
					<dim>16</dim>
					<dim>3</dim>
					<dim>3</dim>
				</port>
			</output>
		</layer>
		<layer id="33" name="pool1/WithoutBiases" type="Convolution" version="opset1">
			<data dilations="1,1" output_padding="0,0" pads_begin="1,1" pads_end="1,1" strides="2,2"/>
			<input>
				<port id="0">
					<dim>1</dim>
					<dim>16</dim>
					<dim>60</dim>
					<dim>60</dim>
				</port>
				<port id="1">
					<dim>16</dim>
					<dim>16</dim>
					<dim>3</dim>
					<dim>3</dim>
				</port>
			</input>
			<output>
				<port id="2" precision="FP16">
					<dim>1</dim>
					<dim>16</dim>
					<dim>30</dim>
					<dim>30</dim>
				</port>
			</output>
		</layer>
		<layer id="34" name="pool1/Dims5013/copy_const474_const" type="Const" version="opset1">
			<data element_type="f16" offset="2918" shape="1,16,1,1" size="32"/>
			<output>
				<port id="1" precision="FP16">
					<dim>1</dim>
					<dim>16</dim>
					<dim>1</dim>
					<dim>1</dim>
				</port>
			</output>
		</layer>
		<layer id="35" name="pool1" type="Add" version="opset1">
			<input>
				<port id="0">
					<dim>1</dim>
					<dim>16</dim>
					<dim>30</dim>
					<dim>30</dim>
				</port>
				<port id="1">
					<dim>1</dim>
					<dim>16</dim>
					<dim>1</dim>
					<dim>1</dim>
				</port>
			</input>
			<output>
				<port id="2" precision="FP16">
					<dim>1</dim>
					<dim>16</dim>
					<dim>30</dim>
					<dim>30</dim>
				</port>
			</output>
		</layer>
		<layer id="36" name="21242128_const" type="Const" version="opset1">
			<data element_type="f16" offset="2950" shape="" size="2"/>
			<output>
				<port id="1" precision="FP16"/>
			</output>
		</layer>
		<layer id="37" name="21252129_const" type="Const" version="opset1">
			<data element_type="f16" offset="2952" shape="" size="2"/>
			<output>
				<port id="1" precision="FP16"/>
			</output>
		</layer>
		<layer id="38" name="21262130_const" type="Const" version="opset1">
			<data element_type="f16" offset="2950" shape="" size="2"/>
			<output>
				<port id="1" precision="FP16"/>
			</output>
		</layer>
		<layer id="39" name="21272131_const" type="Const" version="opset1">
			<data element_type="f16" offset="2952" shape="" size="2"/>
			<output>
				<port id="1" precision="FP16"/>
			</output>
		</layer>
		<layer id="40" name="conv2/WithoutBiases/fq_input_0" type="FakeQuantize" version="opset1">
			<data levels="256"/>
			<input>
				<port id="0">
					<dim>1</dim>
					<dim>16</dim>
					<dim>30</dim>
					<dim>30</dim>
				</port>
				<port id="1"/>
				<port id="2"/>
				<port id="3"/>
				<port id="4"/>
			</input>
			<output>
				<port id="5" precision="FP16">
					<dim>1</dim>
					<dim>16</dim>
					<dim>30</dim>
					<dim>30</dim>
				</port>
			</output>
		</layer>
		<layer id="41" name="conv2/WithoutBiases/fq_weights_1/Convert_to_float/Cast_09625_const" type="Const" version="opset1">
			<data element_type="u8" offset="2954" shape="32,16,3,3" size="4608"/>
			<output>
				<port id="1" precision="U8">
					<dim>32</dim>
					<dim>16</dim>
					<dim>3</dim>
					<dim>3</dim>
				</port>
			</output>
		</layer>
		<layer id="42" name="conv2/WithoutBiases/fq_weights_1/Convert_to_float" type="Convert" version="opset1">
			<data destination_type="f16"/>
			<input>
				<port id="0">
					<dim>32</dim>
					<dim>16</dim>
					<dim>3</dim>
					<dim>3</dim>
				</port>
			</input>
			<output>
				<port id="1" precision="FP16">
					<dim>32</dim>
					<dim>16</dim>
					<dim>3</dim>
					<dim>3</dim>
				</port>
			</output>
		</layer>
		<layer id="43" name="conv2/WithoutBiases/fq_weights_1/Copy/out_low8546_const" type="Const" version="opset1">
			<data element_type="f16" offset="448" shape="1" size="2"/>
			<output>
				<port id="1" precision="FP16">
					<dim>1</dim>
				</port>
			</output>
		</layer>
		<layer id="44" name="conv2/WithoutBiases/fq_weights_1/Copy/out_high8547_const" type="Const" version="opset1">
			<data element_type="f16" offset="450" shape="1" size="2"/>
			<output>
				<port id="1" precision="FP16">
					<dim>1</dim>
				</port>
			</output>
		</layer>
		<layer id="45" name="21362140_const" type="Const" version="opset1">
			<data element_type="f16" offset="7562" shape="32,1,1,1" size="64"/>
			<output>
				<port id="1" precision="FP16">
					<dim>32</dim>
					<dim>1</dim>
					<dim>1</dim>
					<dim>1</dim>
				</port>
			</output>
		</layer>
		<layer id="46" name="21372141_const" type="Const" version="opset1">
			<data element_type="f16" offset="7626" shape="32,1,1,1" size="64"/>
			<output>
				<port id="1" precision="FP16">
					<dim>32</dim>
					<dim>1</dim>
					<dim>1</dim>
					<dim>1</dim>
				</port>
			</output>
		</layer>
		<layer id="47" name="conv2/WithoutBiases/fq_weights_1" type="FakeQuantize" version="opset1">
			<data levels="255"/>
			<input>
				<port id="0">
					<dim>32</dim>
					<dim>16</dim>
					<dim>3</dim>
					<dim>3</dim>
				</port>
				<port id="1">
					<dim>1</dim>
				</port>
				<port id="2">
					<dim>1</dim>
				</port>
				<port id="3">
					<dim>32</dim>
					<dim>1</dim>
					<dim>1</dim>
					<dim>1</dim>
				</port>
				<port id="4">
					<dim>32</dim>
					<dim>1</dim>
					<dim>1</dim>
					<dim>1</dim>
				</port>
			</input>
			<output>
				<port id="5" precision="FP16">
					<dim>32</dim>
					<dim>16</dim>
					<dim>3</dim>
					<dim>3</dim>
				</port>
			</output>
		</layer>
		<layer id="48" name="conv2/WithoutBiases" type="Convolution" version="opset1">
			<data dilations="1,1" output_padding="0,0" pads_begin="1,1" pads_end="1,1" strides="1,1"/>
			<input>
				<port id="0">
					<dim>1</dim>
					<dim>16</dim>
					<dim>30</dim>
					<dim>30</dim>
				</port>
				<port id="1">
					<dim>32</dim>
					<dim>16</dim>
					<dim>3</dim>
					<dim>3</dim>
				</port>
			</input>
			<output>
				<port id="2" precision="FP16">
					<dim>1</dim>
					<dim>32</dim>
					<dim>30</dim>
					<dim>30</dim>
				</port>
			</output>
		</layer>
		<layer id="49" name="data_add_77617766/copy_const478_const" type="Const" version="opset1">
			<data element_type="f16" offset="7690" shape="1,32,1,1" size="64"/>
			<output>
				<port id="1" precision="FP16">
					<dim>1</dim>
					<dim>32</dim>
					<dim>1</dim>
					<dim>1</dim>
				</port>
			</output>
		</layer>
		<layer id="50" name="conv2/Fused_Add_" type="Add" version="opset1">
			<input>
				<port id="0">
					<dim>1</dim>
					<dim>32</dim>
					<dim>30</dim>
					<dim>30</dim>
				</port>
				<port id="1">
					<dim>1</dim>
					<dim>32</dim>
					<dim>1</dim>
					<dim>1</dim>
				</port>
			</input>
			<output>
				<port id="2" precision="FP16">
					<dim>1</dim>
					<dim>32</dim>
					<dim>30</dim>
					<dim>30</dim>
				</port>
			</output>
		</layer>
		<layer id="51" name="relu_conv2" type="ReLU" version="opset1">
			<input>
				<port id="0">
					<dim>1</dim>
					<dim>32</dim>
					<dim>30</dim>
					<dim>30</dim>
				</port>
			</input>
			<output>
				<port id="1" precision="FP16">
					<dim>1</dim>
					<dim>32</dim>
					<dim>30</dim>
					<dim>30</dim>
				</port>
			</output>
		</layer>
		<layer id="52" name="31043108_const" type="Const" version="opset1">
			<data element_type="f16" offset="448" shape="" size="2"/>
			<output>
				<port id="1" precision="FP16"/>
			</output>
		</layer>
		<layer id="53" name="31053109_const" type="Const" version="opset1">
			<data element_type="f16" offset="7754" shape="" size="2"/>
			<output>
				<port id="1" precision="FP16"/>
			</output>
		</layer>
		<layer id="54" name="31063110_const" type="Const" version="opset1">
			<data element_type="f16" offset="448" shape="" size="2"/>
			<output>
				<port id="1" precision="FP16"/>
			</output>
		</layer>
		<layer id="55" name="31073111_const" type="Const" version="opset1">
			<data element_type="f16" offset="7754" shape="" size="2"/>
			<output>
				<port id="1" precision="FP16"/>
			</output>
		</layer>
		<layer id="56" name="pool2/WithoutBiases/fq_input_0" type="FakeQuantize" version="opset1">
			<data levels="256"/>
			<input>
				<port id="0">
					<dim>1</dim>
					<dim>32</dim>
					<dim>30</dim>
					<dim>30</dim>
				</port>
				<port id="1"/>
				<port id="2"/>
				<port id="3"/>
				<port id="4"/>
			</input>
			<output>
				<port id="5" precision="FP16">
					<dim>1</dim>
					<dim>32</dim>
					<dim>30</dim>
					<dim>30</dim>
				</port>
			</output>
		</layer>
		<layer id="57" name="pool2/WithoutBiases/fq_weights_1/Convert_to_float/Cast_09593_const" type="Const" version="opset1">
			<data element_type="u8" offset="7756" shape="16,32,3,3" size="4608"/>
			<output>
				<port id="1" precision="U8">
					<dim>16</dim>
					<dim>32</dim>
					<dim>3</dim>
					<dim>3</dim>
				</port>
			</output>
		</layer>
		<layer id="58" name="pool2/WithoutBiases/fq_weights_1/Convert_to_float" type="Convert" version="opset1">
			<data destination_type="f16"/>
			<input>
				<port id="0">
					<dim>16</dim>
					<dim>32</dim>
					<dim>3</dim>
					<dim>3</dim>
				</port>
			</input>
			<output>
				<port id="1" precision="FP16">
					<dim>16</dim>
					<dim>32</dim>
					<dim>3</dim>
					<dim>3</dim>
				</port>
			</output>
		</layer>
		<layer id="59" name="pool2/WithoutBiases/fq_weights_1/Copy/out_low8586_const" type="Const" version="opset1">
			<data element_type="f16" offset="448" shape="1" size="2"/>
			<output>
				<port id="1" precision="FP16">
					<dim>1</dim>
				</port>
			</output>
		</layer>
		<layer id="60" name="pool2/WithoutBiases/fq_weights_1/Copy/out_high8587_const" type="Const" version="opset1">
			<data element_type="f16" offset="450" shape="1" size="2"/>
			<output>
				<port id="1" precision="FP16">
					<dim>1</dim>
				</port>
			</output>
		</layer>
		<layer id="61" name="31163120_const" type="Const" version="opset1">
			<data element_type="f16" offset="12364" shape="16,1,1,1" size="32"/>
			<output>
				<port id="1" precision="FP16">
					<dim>16</dim>
					<dim>1</dim>
					<dim>1</dim>
					<dim>1</dim>
				</port>
			</output>
		</layer>
		<layer id="62" name="31173121_const" type="Const" version="opset1">
			<data element_type="f16" offset="12396" shape="16,1,1,1" size="32"/>
			<output>
				<port id="1" precision="FP16">
					<dim>16</dim>
					<dim>1</dim>
					<dim>1</dim>
					<dim>1</dim>
				</port>
			</output>
		</layer>
		<layer id="63" name="pool2/WithoutBiases/fq_weights_1" type="FakeQuantize" version="opset1">
			<data levels="255"/>
			<input>
				<port id="0">
					<dim>16</dim>
					<dim>32</dim>
					<dim>3</dim>
					<dim>3</dim>
				</port>
				<port id="1">
					<dim>1</dim>
				</port>
				<port id="2">
					<dim>1</dim>
				</port>
				<port id="3">
					<dim>16</dim>
					<dim>1</dim>
					<dim>1</dim>
					<dim>1</dim>
				</port>
				<port id="4">
					<dim>16</dim>
					<dim>1</dim>
					<dim>1</dim>
					<dim>1</dim>
				</port>
			</input>
			<output>
				<port id="5" precision="FP16">
					<dim>16</dim>
					<dim>32</dim>
					<dim>3</dim>
					<dim>3</dim>
				</port>
			</output>
		</layer>
		<layer id="64" name="pool2/WithoutBiases" type="Convolution" version="opset1">
			<data dilations="1,1" output_padding="0,0" pads_begin="1,1" pads_end="1,1" strides="2,2"/>
			<input>
				<port id="0">
					<dim>1</dim>
					<dim>32</dim>
					<dim>30</dim>
					<dim>30</dim>
				</port>
				<port id="1">
					<dim>16</dim>
					<dim>32</dim>
					<dim>3</dim>
					<dim>3</dim>
				</port>
			</input>
			<output>
				<port id="2" precision="FP16">
					<dim>1</dim>
					<dim>16</dim>
					<dim>15</dim>
					<dim>15</dim>
				</port>
			</output>
		</layer>
		<layer id="65" name="pool2/Dims4821/copy_const483_const" type="Const" version="opset1">
			<data element_type="f16" offset="12428" shape="1,16,1,1" size="32"/>
			<output>
				<port id="1" precision="FP16">
					<dim>1</dim>
					<dim>16</dim>
					<dim>1</dim>
					<dim>1</dim>
				</port>
			</output>
		</layer>
		<layer id="66" name="pool2" type="Add" version="opset1">
			<input>
				<port id="0">
					<dim>1</dim>
					<dim>16</dim>
					<dim>15</dim>
					<dim>15</dim>
				</port>
				<port id="1">
					<dim>1</dim>
					<dim>16</dim>
					<dim>1</dim>
					<dim>1</dim>
				</port>
			</input>
			<output>
				<port id="2" precision="FP16">
					<dim>1</dim>
					<dim>16</dim>
					<dim>15</dim>
					<dim>15</dim>
				</port>
			</output>
		</layer>
		<layer id="67" name="25642568_const" type="Const" version="opset1">
			<data element_type="f16" offset="12460" shape="" size="2"/>
			<output>
				<port id="1" precision="FP16"/>
			</output>
		</layer>
		<layer id="68" name="25652569_const" type="Const" version="opset1">
			<data element_type="f16" offset="12462" shape="" size="2"/>
			<output>
				<port id="1" precision="FP16"/>
			</output>
		</layer>
		<layer id="69" name="25662570_const" type="Const" version="opset1">
			<data element_type="f16" offset="12460" shape="" size="2"/>
			<output>
				<port id="1" precision="FP16"/>
			</output>
		</layer>
		<layer id="70" name="25672571_const" type="Const" version="opset1">
			<data element_type="f16" offset="12462" shape="" size="2"/>
			<output>
				<port id="1" precision="FP16"/>
			</output>
		</layer>
		<layer id="71" name="conv3/WithoutBiases/fq_input_0" type="FakeQuantize" version="opset1">
			<data levels="256"/>
			<input>
				<port id="0">
					<dim>1</dim>
					<dim>16</dim>
					<dim>15</dim>
					<dim>15</dim>
				</port>
				<port id="1"/>
				<port id="2"/>
				<port id="3"/>
				<port id="4"/>
			</input>
			<output>
				<port id="5" precision="FP16">
					<dim>1</dim>
					<dim>16</dim>
					<dim>15</dim>
					<dim>15</dim>
				</port>
			</output>
		</layer>
		<layer id="72" name="conv3/WithoutBiases/fq_weights_1/Convert_to_float/Cast_09653_const" type="Const" version="opset1">
			<data element_type="u8" offset="12464" shape="64,16,3,3" size="9216"/>
			<output>
				<port id="1" precision="U8">
					<dim>64</dim>
					<dim>16</dim>
					<dim>3</dim>
					<dim>3</dim>
				</port>
			</output>
		</layer>
		<layer id="73" name="conv3/WithoutBiases/fq_weights_1/Convert_to_float" type="Convert" version="opset1">
			<data destination_type="f16"/>
			<input>
				<port id="0">
					<dim>64</dim>
					<dim>16</dim>
					<dim>3</dim>
					<dim>3</dim>
				</port>
			</input>
			<output>
				<port id="1" precision="FP16">
					<dim>64</dim>
					<dim>16</dim>
					<dim>3</dim>
					<dim>3</dim>
				</port>
			</output>
		</layer>
		<layer id="74" name="conv3/WithoutBiases/fq_weights_1/Copy/out_low8394_const" type="Const" version="opset1">
			<data element_type="f16" offset="448" shape="1" size="2"/>
			<output>
				<port id="1" precision="FP16">
					<dim>1</dim>
				</port>
			</output>
		</layer>
		<layer id="75" name="conv3/WithoutBiases/fq_weights_1/Copy/out_high8395_const" type="Const" version="opset1">
			<data element_type="f16" offset="450" shape="1" size="2"/>
			<output>
				<port id="1" precision="FP16">
					<dim>1</dim>
				</port>
			</output>
		</layer>
		<layer id="76" name="25762580_const" type="Const" version="opset1">
			<data element_type="f16" offset="21680" shape="64,1,1,1" size="128"/>
			<output>
				<port id="1" precision="FP16">
					<dim>64</dim>
					<dim>1</dim>
					<dim>1</dim>
					<dim>1</dim>
				</port>
			</output>
		</layer>
		<layer id="77" name="25772581_const" type="Const" version="opset1">
			<data element_type="f16" offset="21808" shape="64,1,1,1" size="128"/>
			<output>
				<port id="1" precision="FP16">
					<dim>64</dim>
					<dim>1</dim>
					<dim>1</dim>
					<dim>1</dim>
				</port>
			</output>
		</layer>
		<layer id="78" name="conv3/WithoutBiases/fq_weights_1" type="FakeQuantize" version="opset1">
			<data levels="255"/>
			<input>
				<port id="0">
					<dim>64</dim>
					<dim>16</dim>
					<dim>3</dim>
					<dim>3</dim>
				</port>
				<port id="1">
					<dim>1</dim>
				</port>
				<port id="2">
					<dim>1</dim>
				</port>
				<port id="3">
					<dim>64</dim>
					<dim>1</dim>
					<dim>1</dim>
					<dim>1</dim>
				</port>
				<port id="4">
					<dim>64</dim>
					<dim>1</dim>
					<dim>1</dim>
					<dim>1</dim>
				</port>
			</input>
			<output>
				<port id="5" precision="FP16">
					<dim>64</dim>
					<dim>16</dim>
					<dim>3</dim>
					<dim>3</dim>
				</port>
			</output>
		</layer>
		<layer id="79" name="conv3/WithoutBiases" type="Convolution" version="opset1">
			<data dilations="1,1" output_padding="0,0" pads_begin="1,1" pads_end="1,1" strides="1,1"/>
			<input>
				<port id="0">
					<dim>1</dim>
					<dim>16</dim>
					<dim>15</dim>
					<dim>15</dim>
				</port>
				<port id="1">
					<dim>64</dim>
					<dim>16</dim>
					<dim>3</dim>
					<dim>3</dim>
				</port>
			</input>
			<output>
				<port id="2" precision="FP16">
					<dim>1</dim>
					<dim>64</dim>
					<dim>15</dim>
					<dim>15</dim>
				</port>
			</output>
		</layer>
		<layer id="80" name="data_add_77697774/copy_const487_const" type="Const" version="opset1">
			<data element_type="f16" offset="21936" shape="1,64,1,1" size="128"/>
			<output>
				<port id="1" precision="FP16">
					<dim>1</dim>
					<dim>64</dim>
					<dim>1</dim>
					<dim>1</dim>
				</port>
			</output>
		</layer>
		<layer id="81" name="conv3/Fused_Add_" type="Add" version="opset1">
			<input>
				<port id="0">
					<dim>1</dim>
					<dim>64</dim>
					<dim>15</dim>
					<dim>15</dim>
				</port>
				<port id="1">
					<dim>1</dim>
					<dim>64</dim>
					<dim>1</dim>
					<dim>1</dim>
				</port>
			</input>
			<output>
				<port id="2" precision="FP16">
					<dim>1</dim>
					<dim>64</dim>
					<dim>15</dim>
					<dim>15</dim>
				</port>
			</output>
		</layer>
		<layer id="82" name="relu_conv3" type="ReLU" version="opset1">
			<input>
				<port id="0">
					<dim>1</dim>
					<dim>64</dim>
					<dim>15</dim>
					<dim>15</dim>
				</port>
			</input>
			<output>
				<port id="1" precision="FP16">
					<dim>1</dim>
					<dim>64</dim>
					<dim>15</dim>
					<dim>15</dim>
				</port>
			</output>
		</layer>
		<layer id="83" name="32043208_const" type="Const" version="opset1">
			<data element_type="f16" offset="448" shape="" size="2"/>
			<output>
				<port id="1" precision="FP16"/>
			</output>
		</layer>
		<layer id="84" name="32053209_const" type="Const" version="opset1">
			<data element_type="f16" offset="22064" shape="" size="2"/>
			<output>
				<port id="1" precision="FP16"/>
			</output>
		</layer>
		<layer id="85" name="32063210_const" type="Const" version="opset1">
			<data element_type="f16" offset="448" shape="" size="2"/>
			<output>
				<port id="1" precision="FP16"/>
			</output>
		</layer>
		<layer id="86" name="32073211_const" type="Const" version="opset1">
			<data element_type="f16" offset="22064" shape="" size="2"/>
			<output>
				<port id="1" precision="FP16"/>
			</output>
		</layer>
		<layer id="87" name="pool3/WithoutBiases/fq_input_0" type="FakeQuantize" version="opset1">
			<data levels="256"/>
			<input>
				<port id="0">
					<dim>1</dim>
					<dim>64</dim>
					<dim>15</dim>
					<dim>15</dim>
				</port>
				<port id="1"/>
				<port id="2"/>
				<port id="3"/>
				<port id="4"/>
			</input>
			<output>
				<port id="5" precision="FP16">
					<dim>1</dim>
					<dim>64</dim>
					<dim>15</dim>
					<dim>15</dim>
				</port>
			</output>
		</layer>
		<layer id="88" name="pool3/WithoutBiases/fq_weights_1/Convert_to_float/Cast_09543_const" type="Const" version="opset1">
			<data element_type="u8" offset="22066" shape="32,64,3,3" size="18432"/>
			<output>
				<port id="1" precision="U8">
					<dim>32</dim>
					<dim>64</dim>
					<dim>3</dim>
					<dim>3</dim>
				</port>
			</output>
		</layer>
		<layer id="89" name="pool3/WithoutBiases/fq_weights_1/Convert_to_float" type="Convert" version="opset1">
			<data destination_type="f16"/>
			<input>
				<port id="0">
					<dim>32</dim>
					<dim>64</dim>
					<dim>3</dim>
					<dim>3</dim>
				</port>
			</input>
			<output>
				<port id="1" precision="FP16">
					<dim>32</dim>
					<dim>64</dim>
					<dim>3</dim>
					<dim>3</dim>
				</port>
			</output>
		</layer>
		<layer id="90" name="pool3/WithoutBiases/fq_weights_1/Copy/out_low8506_const" type="Const" version="opset1">
			<data element_type="f16" offset="448" shape="1" size="2"/>
			<output>
				<port id="1" precision="FP16">
					<dim>1</dim>
				</port>
			</output>
		</layer>
		<layer id="91" name="pool3/WithoutBiases/fq_weights_1/Copy/out_high8507_const" type="Const" version="opset1">
			<data element_type="f16" offset="450" shape="1" size="2"/>
			<output>
				<port id="1" precision="FP16">
					<dim>1</dim>
				</port>
			</output>
		</layer>
		<layer id="92" name="32163220_const" type="Const" version="opset1">
			<data element_type="f16" offset="40498" shape="32,1,1,1" size="64"/>
			<output>
				<port id="1" precision="FP16">
					<dim>32</dim>
					<dim>1</dim>
					<dim>1</dim>
					<dim>1</dim>
				</port>
			</output>
		</layer>
		<layer id="93" name="32173221_const" type="Const" version="opset1">
			<data element_type="f16" offset="40562" shape="32,1,1,1" size="64"/>
			<output>
				<port id="1" precision="FP16">
					<dim>32</dim>
					<dim>1</dim>
					<dim>1</dim>
					<dim>1</dim>
				</port>
			</output>
		</layer>
		<layer id="94" name="pool3/WithoutBiases/fq_weights_1" type="FakeQuantize" version="opset1">
			<data levels="255"/>
			<input>
				<port id="0">
					<dim>32</dim>
					<dim>64</dim>
					<dim>3</dim>
					<dim>3</dim>
				</port>
				<port id="1">
					<dim>1</dim>
				</port>
				<port id="2">
					<dim>1</dim>
				</port>
				<port id="3">
					<dim>32</dim>
					<dim>1</dim>
					<dim>1</dim>
					<dim>1</dim>
				</port>
				<port id="4">
					<dim>32</dim>
					<dim>1</dim>
					<dim>1</dim>
					<dim>1</dim>
				</port>
			</input>
			<output>
				<port id="5" precision="FP16">
					<dim>32</dim>
					<dim>64</dim>
					<dim>3</dim>
					<dim>3</dim>
				</port>
			</output>
		</layer>
		<layer id="95" name="pool3/WithoutBiases" type="Convolution" version="opset1">
			<data dilations="1,1" output_padding="0,0" pads_begin="1,1" pads_end="1,1" strides="2,2"/>
			<input>
				<port id="0">
					<dim>1</dim>
					<dim>64</dim>
					<dim>15</dim>
					<dim>15</dim>
				</port>
				<port id="1">
					<dim>32</dim>
					<dim>64</dim>
					<dim>3</dim>
					<dim>3</dim>
				</port>
			</input>
			<output>
				<port id="2" precision="FP16">
					<dim>1</dim>
					<dim>32</dim>
					<dim>8</dim>
					<dim>8</dim>
				</port>
			</output>
		</layer>
		<layer id="96" name="pool3/Dims5031/copy_const492_const" type="Const" version="opset1">
			<data element_type="f16" offset="40626" shape="1,32,1,1" size="64"/>
			<output>
				<port id="1" precision="FP16">
					<dim>1</dim>
					<dim>32</dim>
					<dim>1</dim>
					<dim>1</dim>
				</port>
			</output>
		</layer>
		<layer id="97" name="pool3" type="Add" version="opset1">
			<input>
				<port id="0">
					<dim>1</dim>
					<dim>32</dim>
					<dim>8</dim>
					<dim>8</dim>
				</port>
				<port id="1">
					<dim>1</dim>
					<dim>32</dim>
					<dim>1</dim>
					<dim>1</dim>
				</port>
			</input>
			<output>
				<port id="2" precision="FP16">
					<dim>1</dim>
					<dim>32</dim>
					<dim>8</dim>
					<dim>8</dim>
				</port>
			</output>
		</layer>
		<layer id="98" name="30443048_const" type="Const" version="opset1">
			<data element_type="f16" offset="40690" shape="" size="2"/>
			<output>
				<port id="1" precision="FP16"/>
			</output>
		</layer>
		<layer id="99" name="30453049_const" type="Const" version="opset1">
			<data element_type="f16" offset="40692" shape="" size="2"/>
			<output>
				<port id="1" precision="FP16"/>
			</output>
		</layer>
		<layer id="100" name="30463050_const" type="Const" version="opset1">
			<data element_type="f16" offset="40690" shape="" size="2"/>
			<output>
				<port id="1" precision="FP16"/>
			</output>
		</layer>
		<layer id="101" name="30473051_const" type="Const" version="opset1">
			<data element_type="f16" offset="40692" shape="" size="2"/>
			<output>
				<port id="1" precision="FP16"/>
			</output>
		</layer>
		<layer id="102" name="conv4/WithoutBiases/fq_input_0" type="FakeQuantize" version="opset1">
			<data levels="256"/>
			<input>
				<port id="0">
					<dim>1</dim>
					<dim>32</dim>
					<dim>8</dim>
					<dim>8</dim>
				</port>
				<port id="1"/>
				<port id="2"/>
				<port id="3"/>
				<port id="4"/>
			</input>
			<output>
				<port id="5" precision="FP16">
					<dim>1</dim>
					<dim>32</dim>
					<dim>8</dim>
					<dim>8</dim>
				</port>
			</output>
		</layer>
		<layer id="103" name="conv4/WithoutBiases/fq_weights_1/Convert_to_float/Cast_09579_const" type="Const" version="opset1">
			<data element_type="u8" offset="40694" shape="128,32,3,3" size="36864"/>
			<output>
				<port id="1" precision="U8">
					<dim>128</dim>
					<dim>32</dim>
					<dim>3</dim>
					<dim>3</dim>
				</port>
			</output>
		</layer>
		<layer id="104" name="conv4/WithoutBiases/fq_weights_1/Convert_to_float" type="Convert" version="opset1">
			<data destination_type="f16"/>
			<input>
				<port id="0">
					<dim>128</dim>
					<dim>32</dim>
					<dim>3</dim>
					<dim>3</dim>
				</port>
			</input>
			<output>
				<port id="1" precision="FP16">
					<dim>128</dim>
					<dim>32</dim>
					<dim>3</dim>
					<dim>3</dim>
				</port>
			</output>
		</layer>
		<layer id="105" name="conv4/WithoutBiases/fq_weights_1/Copy/out_low8170_const" type="Const" version="opset1">
			<data element_type="f16" offset="448" shape="1" size="2"/>
			<output>
				<port id="1" precision="FP16">
					<dim>1</dim>
				</port>
			</output>
		</layer>
		<layer id="106" name="conv4/WithoutBiases/fq_weights_1/Copy/out_high8171_const" type="Const" version="opset1">
			<data element_type="f16" offset="450" shape="1" size="2"/>
			<output>
				<port id="1" precision="FP16">
					<dim>1</dim>
				</port>
			</output>
		</layer>
		<layer id="107" name="30563060_const" type="Const" version="opset1">
			<data element_type="f16" offset="77558" shape="128,1,1,1" size="256"/>
			<output>
				<port id="1" precision="FP16">
					<dim>128</dim>
					<dim>1</dim>
					<dim>1</dim>
					<dim>1</dim>
				</port>
			</output>
		</layer>
		<layer id="108" name="30573061_const" type="Const" version="opset1">
			<data element_type="f16" offset="77814" shape="128,1,1,1" size="256"/>
			<output>
				<port id="1" precision="FP16">
					<dim>128</dim>
					<dim>1</dim>
					<dim>1</dim>
					<dim>1</dim>
				</port>
			</output>
		</layer>
		<layer id="109" name="conv4/WithoutBiases/fq_weights_1" type="FakeQuantize" version="opset1">
			<data levels="255"/>
			<input>
				<port id="0">
					<dim>128</dim>
					<dim>32</dim>
					<dim>3</dim>
					<dim>3</dim>
				</port>
				<port id="1">
					<dim>1</dim>
				</port>
				<port id="2">
					<dim>1</dim>
				</port>
				<port id="3">
					<dim>128</dim>
					<dim>1</dim>
					<dim>1</dim>
					<dim>1</dim>
				</port>
				<port id="4">
					<dim>128</dim>
					<dim>1</dim>
					<dim>1</dim>
					<dim>1</dim>
				</port>
			</input>
			<output>
				<port id="5" precision="FP16">
					<dim>128</dim>
					<dim>32</dim>
					<dim>3</dim>
					<dim>3</dim>
				</port>
			</output>
		</layer>
		<layer id="110" name="conv4/WithoutBiases" type="Convolution" version="opset1">
			<data dilations="1,1" output_padding="0,0" pads_begin="1,1" pads_end="1,1" strides="1,1"/>
			<input>
				<port id="0">
					<dim>1</dim>
					<dim>32</dim>
					<dim>8</dim>
					<dim>8</dim>
				</port>
				<port id="1">
					<dim>128</dim>
					<dim>32</dim>
					<dim>3</dim>
					<dim>3</dim>
				</port>
			</input>
			<output>
				<port id="2" precision="FP16">
					<dim>1</dim>
					<dim>128</dim>
					<dim>8</dim>
					<dim>8</dim>
				</port>
			</output>
		</layer>
		<layer id="111" name="data_add_77777782/copy_const496_const" type="Const" version="opset1">
			<data element_type="f16" offset="78070" shape="1,128,1,1" size="256"/>
			<output>
				<port id="1" precision="FP16">
					<dim>1</dim>
					<dim>128</dim>
					<dim>1</dim>
					<dim>1</dim>
				</port>
			</output>
		</layer>
		<layer id="112" name="conv4/Fused_Add_" type="Add" version="opset1">
			<input>
				<port id="0">
					<dim>1</dim>
					<dim>128</dim>
					<dim>8</dim>
					<dim>8</dim>
				</port>
				<port id="1">
					<dim>1</dim>
					<dim>128</dim>
					<dim>1</dim>
					<dim>1</dim>
				</port>
			</input>
			<output>
				<port id="2" precision="FP16">
					<dim>1</dim>
					<dim>128</dim>
					<dim>8</dim>
					<dim>8</dim>
				</port>
			</output>
		</layer>
		<layer id="113" name="relu_conv4" type="ReLU" version="opset1">
			<input>
				<port id="0">
					<dim>1</dim>
					<dim>128</dim>
					<dim>8</dim>
					<dim>8</dim>
				</port>
			</input>
			<output>
				<port id="1" precision="FP16">
					<dim>1</dim>
					<dim>128</dim>
					<dim>8</dim>
					<dim>8</dim>
				</port>
			</output>
		</layer>
		<layer id="114" name="21442148_const" type="Const" version="opset1">
			<data element_type="f16" offset="448" shape="" size="2"/>
			<output>
				<port id="1" precision="FP16"/>
			</output>
		</layer>
		<layer id="115" name="21452149_const" type="Const" version="opset1">
			<data element_type="f16" offset="78326" shape="" size="2"/>
			<output>
				<port id="1" precision="FP16"/>
			</output>
		</layer>
		<layer id="116" name="21462150_const" type="Const" version="opset1">
			<data element_type="f16" offset="448" shape="" size="2"/>
			<output>
				<port id="1" precision="FP16"/>
			</output>
		</layer>
		<layer id="117" name="21472151_const" type="Const" version="opset1">
			<data element_type="f16" offset="78326" shape="" size="2"/>
			<output>
				<port id="1" precision="FP16"/>
			</output>
		</layer>
		<layer id="118" name="pool4/WithoutBiases/fq_input_0" type="FakeQuantize" version="opset1">
			<data levels="256"/>
			<input>
				<port id="0">
					<dim>1</dim>
					<dim>128</dim>
					<dim>8</dim>
					<dim>8</dim>
				</port>
				<port id="1"/>
				<port id="2"/>
				<port id="3"/>
				<port id="4"/>
			</input>
			<output>
				<port id="5" precision="FP16">
					<dim>1</dim>
					<dim>128</dim>
					<dim>8</dim>
					<dim>8</dim>
				</port>
			</output>
		</layer>
		<layer id="119" name="pool4/WithoutBiases/fq_weights_1/Convert_to_float/Cast_09583_const" type="Const" version="opset1">
			<data element_type="u8" offset="78328" shape="64,128,3,3" size="73728"/>
			<output>
				<port id="1" precision="U8">
					<dim>64</dim>
					<dim>128</dim>
					<dim>3</dim>
					<dim>3</dim>
				</port>
			</output>
		</layer>
		<layer id="120" name="pool4/WithoutBiases/fq_weights_1/Convert_to_float" type="Convert" version="opset1">
			<data destination_type="f16"/>
			<input>
				<port id="0">
					<dim>64</dim>
					<dim>128</dim>
					<dim>3</dim>
					<dim>3</dim>
				</port>
			</input>
			<output>
				<port id="1" precision="FP16">
					<dim>64</dim>
					<dim>128</dim>
					<dim>3</dim>
					<dim>3</dim>
				</port>
			</output>
		</layer>
		<layer id="121" name="pool4/WithoutBiases/fq_weights_1/Copy/out_low7930_const" type="Const" version="opset1">
			<data element_type="f16" offset="448" shape="1" size="2"/>
			<output>
				<port id="1" precision="FP16">
					<dim>1</dim>
				</port>
			</output>
		</layer>
		<layer id="122" name="pool4/WithoutBiases/fq_weights_1/Copy/out_high7931_const" type="Const" version="opset1">
			<data element_type="f16" offset="450" shape="1" size="2"/>
			<output>
				<port id="1" precision="FP16">
					<dim>1</dim>
				</port>
			</output>
		</layer>
		<layer id="123" name="21562160_const" type="Const" version="opset1">
			<data element_type="f16" offset="152056" shape="64,1,1,1" size="128"/>
			<output>
				<port id="1" precision="FP16">
					<dim>64</dim>
					<dim>1</dim>
					<dim>1</dim>
					<dim>1</dim>
				</port>
			</output>
		</layer>
		<layer id="124" name="21572161_const" type="Const" version="opset1">
			<data element_type="f16" offset="152184" shape="64,1,1,1" size="128"/>
			<output>
				<port id="1" precision="FP16">
					<dim>64</dim>
					<dim>1</dim>
					<dim>1</dim>
					<dim>1</dim>
				</port>
			</output>
		</layer>
		<layer id="125" name="pool4/WithoutBiases/fq_weights_1" type="FakeQuantize" version="opset1">
			<data levels="255"/>
			<input>
				<port id="0">
					<dim>64</dim>
					<dim>128</dim>
					<dim>3</dim>
					<dim>3</dim>
				</port>
				<port id="1">
					<dim>1</dim>
				</port>
				<port id="2">
					<dim>1</dim>
				</port>
				<port id="3">
					<dim>64</dim>
					<dim>1</dim>
					<dim>1</dim>
					<dim>1</dim>
				</port>
				<port id="4">
					<dim>64</dim>
					<dim>1</dim>
					<dim>1</dim>
					<dim>1</dim>
				</port>
			</input>
			<output>
				<port id="5" precision="FP16">
					<dim>64</dim>
					<dim>128</dim>
					<dim>3</dim>
					<dim>3</dim>
				</port>
			</output>
		</layer>
		<layer id="126" name="pool4/WithoutBiases" type="Convolution" version="opset1">
			<data dilations="1,1" output_padding="0,0" pads_begin="0,0" pads_end="0,0" strides="2,2"/>
			<input>
				<port id="0">
					<dim>1</dim>
					<dim>128</dim>
					<dim>8</dim>
					<dim>8</dim>
				</port>
				<port id="1">
					<dim>64</dim>
					<dim>128</dim>
					<dim>3</dim>
					<dim>3</dim>
				</port>
			</input>
			<output>
				<port id="2" precision="FP16">
					<dim>1</dim>
					<dim>64</dim>
					<dim>3</dim>
					<dim>3</dim>
				</port>
			</output>
		</layer>
		<layer id="127" name="pool4/Dims4707/copy_const501_const" type="Const" version="opset1">
			<data element_type="f16" offset="152312" shape="1,64,1,1" size="128"/>
			<output>
				<port id="1" precision="FP16">
					<dim>1</dim>
					<dim>64</dim>
					<dim>1</dim>
					<dim>1</dim>
				</port>
			</output>
		</layer>
		<layer id="128" name="pool4" type="Add" version="opset1">
			<input>
				<port id="0">
					<dim>1</dim>
					<dim>64</dim>
					<dim>3</dim>
					<dim>3</dim>
				</port>
				<port id="1">
					<dim>1</dim>
					<dim>64</dim>
					<dim>1</dim>
					<dim>1</dim>
				</port>
			</input>
			<output>
				<port id="2" precision="FP16">
					<dim>1</dim>
					<dim>64</dim>
					<dim>3</dim>
					<dim>3</dim>
				</port>
			</output>
		</layer>
		<layer id="129" name="30043008_const" type="Const" version="opset1">
			<data element_type="f16" offset="152440" shape="" size="2"/>
			<output>
				<port id="1" precision="FP16"/>
			</output>
		</layer>
		<layer id="130" name="30053009_const" type="Const" version="opset1">
			<data element_type="f16" offset="152442" shape="" size="2"/>
			<output>
				<port id="1" precision="FP16"/>
			</output>
		</layer>
		<layer id="131" name="30063010_const" type="Const" version="opset1">
			<data element_type="f16" offset="152440" shape="" size="2"/>
			<output>
				<port id="1" precision="FP16"/>
			</output>
		</layer>
		<layer id="132" name="30073011_const" type="Const" version="opset1">
			<data element_type="f16" offset="152442" shape="" size="2"/>
			<output>
				<port id="1" precision="FP16"/>
			</output>
		</layer>
		<layer id="133" name="conv5/WithoutBiases/fq_input_0" type="FakeQuantize" version="opset1">
			<data levels="256"/>
			<input>
				<port id="0">
					<dim>1</dim>
					<dim>64</dim>
					<dim>3</dim>
					<dim>3</dim>
				</port>
				<port id="1"/>
				<port id="2"/>
				<port id="3"/>
				<port id="4"/>
			</input>
			<output>
				<port id="5" precision="FP16">
					<dim>1</dim>
					<dim>64</dim>
					<dim>3</dim>
					<dim>3</dim>
				</port>
			</output>
		</layer>
		<layer id="134" name="conv5/WithoutBiases/fq_weights_1/Convert_to_float/Cast_09633_const" type="Const" version="opset1">
			<data element_type="u8" offset="152444" shape="256,64,3,3" size="147456"/>
			<output>
				<port id="1" precision="U8">
					<dim>256</dim>
					<dim>64</dim>
					<dim>3</dim>
					<dim>3</dim>
				</port>
			</output>
		</layer>
		<layer id="135" name="conv5/WithoutBiases/fq_weights_1/Convert_to_float" type="Convert" version="opset1">
			<data destination_type="f16"/>
			<input>
				<port id="0">
					<dim>256</dim>
					<dim>64</dim>
					<dim>3</dim>
					<dim>3</dim>
				</port>
			</input>
			<output>
				<port id="1" precision="FP16">
					<dim>256</dim>
					<dim>64</dim>
					<dim>3</dim>
					<dim>3</dim>
				</port>
			</output>
		</layer>
		<layer id="136" name="conv5/WithoutBiases/fq_weights_1/Copy/out_low8074_const" type="Const" version="opset1">
			<data element_type="f16" offset="448" shape="1" size="2"/>
			<output>
				<port id="1" precision="FP16">
					<dim>1</dim>
				</port>
			</output>
		</layer>
		<layer id="137" name="conv5/WithoutBiases/fq_weights_1/Copy/out_high8075_const" type="Const" version="opset1">
			<data element_type="f16" offset="450" shape="1" size="2"/>
			<output>
				<port id="1" precision="FP16">
					<dim>1</dim>
				</port>
			</output>
		</layer>
		<layer id="138" name="30163020_const" type="Const" version="opset1">
			<data element_type="f16" offset="299900" shape="256,1,1,1" size="512"/>
			<output>
				<port id="1" precision="FP16">
					<dim>256</dim>
					<dim>1</dim>
					<dim>1</dim>
					<dim>1</dim>
				</port>
			</output>
		</layer>
		<layer id="139" name="30173021_const" type="Const" version="opset1">
			<data element_type="f16" offset="300412" shape="256,1,1,1" size="512"/>
			<output>
				<port id="1" precision="FP16">
					<dim>256</dim>
					<dim>1</dim>
					<dim>1</dim>
					<dim>1</dim>
				</port>
			</output>
		</layer>
		<layer id="140" name="conv5/WithoutBiases/fq_weights_1" type="FakeQuantize" version="opset1">
			<data levels="255"/>
			<input>
				<port id="0">
					<dim>256</dim>
					<dim>64</dim>
					<dim>3</dim>
					<dim>3</dim>
				</port>
				<port id="1">
					<dim>1</dim>
				</port>
				<port id="2">
					<dim>1</dim>
				</port>
				<port id="3">
					<dim>256</dim>
					<dim>1</dim>
					<dim>1</dim>
					<dim>1</dim>
				</port>
				<port id="4">
					<dim>256</dim>
					<dim>1</dim>
					<dim>1</dim>
					<dim>1</dim>
				</port>
			</input>
			<output>
				<port id="5" precision="FP16">
					<dim>256</dim>
					<dim>64</dim>
					<dim>3</dim>
					<dim>3</dim>
				</port>
			</output>
		</layer>
		<layer id="141" name="conv5/WithoutBiases" type="Convolution" version="opset1">
			<data dilations="1,1" output_padding="0,0" pads_begin="1,1" pads_end="1,1" strides="1,1"/>
			<input>
				<port id="0">
					<dim>1</dim>
					<dim>64</dim>
					<dim>3</dim>
					<dim>3</dim>
				</port>
				<port id="1">
					<dim>256</dim>
					<dim>64</dim>
					<dim>3</dim>
					<dim>3</dim>
				</port>
			</input>
			<output>
				<port id="2" precision="FP16">
					<dim>1</dim>
					<dim>256</dim>
					<dim>3</dim>
					<dim>3</dim>
				</port>
			</output>
		</layer>
		<layer id="142" name="data_add_77857790/copy_const505_const" type="Const" version="opset1">
			<data element_type="f16" offset="300924" shape="1,256,1,1" size="512"/>
			<output>
				<port id="1" precision="FP16">
					<dim>1</dim>
					<dim>256</dim>
					<dim>1</dim>
					<dim>1</dim>
				</port>
			</output>
		</layer>
		<layer id="143" name="conv5/Fused_Add_" type="Add" version="opset1">
			<input>
				<port id="0">
					<dim>1</dim>
					<dim>256</dim>
					<dim>3</dim>
					<dim>3</dim>
				</port>
				<port id="1">
					<dim>1</dim>
					<dim>256</dim>
					<dim>1</dim>
					<dim>1</dim>
				</port>
			</input>
			<output>
				<port id="2" precision="FP16">
					<dim>1</dim>
					<dim>256</dim>
					<dim>3</dim>
					<dim>3</dim>
				</port>
			</output>
		</layer>
		<layer id="144" name="relu_conv5" type="ReLU" version="opset1">
			<input>
				<port id="0">
					<dim>1</dim>
					<dim>256</dim>
					<dim>3</dim>
					<dim>3</dim>
				</port>
			</input>
			<output>
				<port id="1" precision="FP16">
					<dim>1</dim>
					<dim>256</dim>
					<dim>3</dim>
					<dim>3</dim>
				</port>
			</output>
		</layer>
		<layer id="145" name="21842188_const" type="Const" version="opset1">
			<data element_type="f16" offset="448" shape="" size="2"/>
			<output>
				<port id="1" precision="FP16"/>
			</output>
		</layer>
		<layer id="146" name="21852189_const" type="Const" version="opset1">
			<data element_type="f16" offset="301436" shape="" size="2"/>
			<output>
				<port id="1" precision="FP16"/>
			</output>
		</layer>
		<layer id="147" name="21862190_const" type="Const" version="opset1">
			<data element_type="f16" offset="448" shape="" size="2"/>
			<output>
				<port id="1" precision="FP16"/>
			</output>
		</layer>
		<layer id="148" name="21872191_const" type="Const" version="opset1">
			<data element_type="f16" offset="301436" shape="" size="2"/>
			<output>
				<port id="1" precision="FP16"/>
			</output>
		</layer>
		<layer id="149" name="conv_fm/WithoutBiases/fq_input_0" type="FakeQuantize" version="opset1">
			<data levels="256"/>
			<input>
				<port id="0">
					<dim>1</dim>
					<dim>256</dim>
					<dim>3</dim>
					<dim>3</dim>
				</port>
				<port id="1"/>
				<port id="2"/>
				<port id="3"/>
				<port id="4"/>
			</input>
			<output>
				<port id="5" precision="FP16">
					<dim>1</dim>
					<dim>256</dim>
					<dim>3</dim>
					<dim>3</dim>
				</port>
			</output>
		</layer>
		<layer id="150" name="conv_fm/WithoutBiases/fq_weights_1/Convert_to_float/Cast_09539_const" type="Const" version="opset1">
			<data element_type="u8" offset="301438" shape="512,256,3,3" size="1179648"/>
			<output>
				<port id="1" precision="U8">
					<dim>512</dim>
					<dim>256</dim>
					<dim>3</dim>
					<dim>3</dim>
				</port>
			</output>
		</layer>
		<layer id="151" name="conv_fm/WithoutBiases/fq_weights_1/Convert_to_float" type="Convert" version="opset1">
			<data destination_type="f16"/>
			<input>
				<port id="0">
					<dim>512</dim>
					<dim>256</dim>
					<dim>3</dim>
					<dim>3</dim>
				</port>
			</input>
			<output>
				<port id="1" precision="FP16">
					<dim>512</dim>
					<dim>256</dim>
					<dim>3</dim>
					<dim>3</dim>
				</port>
			</output>
		</layer>
		<layer id="152" name="conv_fm/WithoutBiases/fq_weights_1/Copy/out_low8482_const" type="Const" version="opset1">
			<data element_type="f16" offset="448" shape="1" size="2"/>
			<output>
				<port id="1" precision="FP16">
					<dim>1</dim>
				</port>
			</output>
		</layer>
		<layer id="153" name="conv_fm/WithoutBiases/fq_weights_1/Copy/out_high8483_const" type="Const" version="opset1">
			<data element_type="f16" offset="450" shape="1" size="2"/>
			<output>
				<port id="1" precision="FP16">
					<dim>1</dim>
				</port>
			</output>
		</layer>
		<layer id="154" name="21962200_const" type="Const" version="opset1">
			<data element_type="f16" offset="1481086" shape="512,1,1,1" size="1024"/>
			<output>
				<port id="1" precision="FP16">
					<dim>512</dim>
					<dim>1</dim>
					<dim>1</dim>
					<dim>1</dim>
				</port>
			</output>
		</layer>
		<layer id="155" name="21972201_const" type="Const" version="opset1">
			<data element_type="f16" offset="1482110" shape="512,1,1,1" size="1024"/>
			<output>
				<port id="1" precision="FP16">
					<dim>512</dim>
					<dim>1</dim>
					<dim>1</dim>
					<dim>1</dim>
				</port>
			</output>
		</layer>
		<layer id="156" name="conv_fm/WithoutBiases/fq_weights_1" type="FakeQuantize" version="opset1">
			<data levels="255"/>
			<input>
				<port id="0">
					<dim>512</dim>
					<dim>256</dim>
					<dim>3</dim>
					<dim>3</dim>
				</port>
				<port id="1">
					<dim>1</dim>
				</port>
				<port id="2">
					<dim>1</dim>
				</port>
				<port id="3">
					<dim>512</dim>
					<dim>1</dim>
					<dim>1</dim>
					<dim>1</dim>
				</port>
				<port id="4">
					<dim>512</dim>
					<dim>1</dim>
					<dim>1</dim>
					<dim>1</dim>
				</port>
			</input>
			<output>
				<port id="5" precision="FP16">
					<dim>512</dim>
					<dim>256</dim>
					<dim>3</dim>
					<dim>3</dim>
				</port>
			</output>
		</layer>
		<layer id="157" name="conv_fm/WithoutBiases" type="Convolution" version="opset1">
			<data dilations="1,1" output_padding="0,0" pads_begin="0,0" pads_end="0,0" strides="1,1"/>
			<input>
				<port id="0">
					<dim>1</dim>
					<dim>256</dim>
					<dim>3</dim>
					<dim>3</dim>
				</port>
				<port id="1">
					<dim>512</dim>
					<dim>256</dim>
					<dim>3</dim>
					<dim>3</dim>
				</port>
			</input>
			<output>
				<port id="2" precision="FP16">
					<dim>1</dim>
					<dim>512</dim>
					<dim>1</dim>
					<dim>1</dim>
				</port>
			</output>
		</layer>
		<layer id="158" name="conv_fm/Dims4869/copy_const510_const" type="Const" version="opset1">
			<data element_type="f16" offset="1483134" shape="1,512,1,1" size="1024"/>
			<output>
				<port id="1" precision="FP16">
					<dim>1</dim>
					<dim>512</dim>
					<dim>1</dim>
					<dim>1</dim>
				</port>
			</output>
		</layer>
		<layer id="159" name="conv_fm" type="Add" version="opset1">
			<input>
				<port id="0">
					<dim>1</dim>
					<dim>512</dim>
					<dim>1</dim>
					<dim>1</dim>
				</port>
				<port id="1">
					<dim>1</dim>
					<dim>512</dim>
					<dim>1</dim>
					<dim>1</dim>
				</port>
			</input>
			<output>
				<port id="2" precision="FP16">
					<dim>1</dim>
					<dim>512</dim>
					<dim>1</dim>
					<dim>1</dim>
				</port>
			</output>
		</layer>
		<layer id="160" name="20842088_const" type="Const" version="opset1">
			<data element_type="f16" offset="1484158" shape="" size="2"/>
			<output>
				<port id="1" precision="FP16"/>
			</output>
		</layer>
		<layer id="161" name="20852089_const" type="Const" version="opset1">
			<data element_type="f16" offset="1484160" shape="" size="2"/>
			<output>
				<port id="1" precision="FP16"/>
			</output>
		</layer>
		<layer id="162" name="20862090_const" type="Const" version="opset1">
			<data element_type="f16" offset="1484158" shape="" size="2"/>
			<output>
				<port id="1" precision="FP16"/>
			</output>
		</layer>
		<layer id="163" name="20872091_const" type="Const" version="opset1">
			<data element_type="f16" offset="1484160" shape="" size="2"/>
			<output>
				<port id="1" precision="FP16"/>
			</output>
		</layer>
		<layer id="164" name="landmarks_conv_edge_61/WithoutBiases/fq_input_0" type="FakeQuantize" version="opset1">
			<data levels="256"/>
			<input>
				<port id="0">
					<dim>1</dim>
					<dim>512</dim>
					<dim>1</dim>
					<dim>1</dim>
				</port>
				<port id="1"/>
				<port id="2"/>
				<port id="3"/>
				<port id="4"/>
			</input>
			<output>
				<port id="5" precision="FP16">
					<dim>1</dim>
					<dim>512</dim>
					<dim>1</dim>
					<dim>1</dim>
				</port>
			</output>
		</layer>
		<layer id="165" name="landmarks_conv_leye_corner/WithoutBiases/fq_weights_1/Convert_to_float/Cast_09611_const" type="Const" version="opset1">
			<data element_type="u8" offset="1484162" shape="256,512,1,1" size="131072"/>
			<output>
				<port id="1" precision="U8">
					<dim>256</dim>
					<dim>512</dim>
					<dim>1</dim>
					<dim>1</dim>
				</port>
			</output>
		</layer>
		<layer id="166" name="landmarks_conv_leye_corner/WithoutBiases/fq_weights_1/Convert_to_float" type="Convert" version="opset1">
			<data destination_type="f16"/>
			<input>
				<port id="0">
					<dim>256</dim>
					<dim>512</dim>
					<dim>1</dim>
					<dim>1</dim>
				</port>
			</input>
			<output>
				<port id="1" precision="FP16">
					<dim>256</dim>
					<dim>512</dim>
					<dim>1</dim>
					<dim>1</dim>
				</port>
			</output>
		</layer>
		<layer id="167" name="landmarks_conv_leye_corner/WithoutBiases/fq_weights_1/Copy/out_low8474_const" type="Const" version="opset1">
			<data element_type="f16" offset="448" shape="1" size="2"/>
			<output>
				<port id="1" precision="FP16">
					<dim>1</dim>
				</port>
			</output>
		</layer>
		<layer id="168" name="landmarks_conv_leye_corner/WithoutBiases/fq_weights_1/Copy/out_high8475_const" type="Const" version="opset1">
			<data element_type="f16" offset="450" shape="1" size="2"/>
			<output>
				<port id="1" precision="FP16">
					<dim>1</dim>
				</port>
			</output>
		</layer>
		<layer id="169" name="27162720_const" type="Const" version="opset1">
			<data element_type="f16" offset="1615234" shape="256,1,1,1" size="512"/>
			<output>
				<port id="1" precision="FP16">
					<dim>256</dim>
					<dim>1</dim>
					<dim>1</dim>
					<dim>1</dim>
				</port>
			</output>
		</layer>
		<layer id="170" name="27172721_const" type="Const" version="opset1">
			<data element_type="f16" offset="1615746" shape="256,1,1,1" size="512"/>
			<output>
				<port id="1" precision="FP16">
					<dim>256</dim>
					<dim>1</dim>
					<dim>1</dim>
					<dim>1</dim>
				</port>
			</output>
		</layer>
		<layer id="171" name="landmarks_conv_leye_corner/WithoutBiases/fq_weights_1" type="FakeQuantize" version="opset1">
			<data levels="255"/>
			<input>
				<port id="0">
					<dim>256</dim>
					<dim>512</dim>
					<dim>1</dim>
					<dim>1</dim>
				</port>
				<port id="1">
					<dim>1</dim>
				</port>
				<port id="2">
					<dim>1</dim>
				</port>
				<port id="3">
					<dim>256</dim>
					<dim>1</dim>
					<dim>1</dim>
					<dim>1</dim>
				</port>
				<port id="4">
					<dim>256</dim>
					<dim>1</dim>
					<dim>1</dim>
					<dim>1</dim>
				</port>
			</input>
			<output>
				<port id="5" precision="FP16">
					<dim>256</dim>
					<dim>512</dim>
					<dim>1</dim>
					<dim>1</dim>
				</port>
			</output>
		</layer>
		<layer id="172" name="landmarks_conv_leye_corner/WithoutBiases" type="Convolution" version="opset1">
			<data dilations="1,1" output_padding="0,0" pads_begin="0,0" pads_end="0,0" strides="1,1"/>
			<input>
				<port id="0">
					<dim>1</dim>
					<dim>512</dim>
					<dim>1</dim>
					<dim>1</dim>
				</port>
				<port id="1">
					<dim>256</dim>
					<dim>512</dim>
					<dim>1</dim>
					<dim>1</dim>
				</port>
			</input>
			<output>
				<port id="2" precision="FP16">
					<dim>1</dim>
					<dim>256</dim>
					<dim>1</dim>
					<dim>1</dim>
				</port>
			</output>
		</layer>
		<layer id="173" name="data_add_78417846/copy_const514_const" type="Const" version="opset1">
			<data element_type="f16" offset="1616258" shape="1,256,1,1" size="512"/>
			<output>
				<port id="1" precision="FP16">
					<dim>1</dim>
					<dim>256</dim>
					<dim>1</dim>
					<dim>1</dim>
				</port>
			</output>
		</layer>
		<layer id="174" name="landmarks_conv_leye_corner/Fused_Add_" type="Add" version="opset1">
			<input>
				<port id="0">
					<dim>1</dim>
					<dim>256</dim>
					<dim>1</dim>
					<dim>1</dim>
				</port>
				<port id="1">
					<dim>1</dim>
					<dim>256</dim>
					<dim>1</dim>
					<dim>1</dim>
				</port>
			</input>
			<output>
				<port id="2" precision="FP16">
					<dim>1</dim>
					<dim>256</dim>
					<dim>1</dim>
					<dim>1</dim>
				</port>
			</output>
		</layer>
		<layer id="175" name="relu_leye_corner" type="ReLU" version="opset1">
			<input>
				<port id="0">
					<dim>1</dim>
					<dim>256</dim>
					<dim>1</dim>
					<dim>1</dim>
				</port>
			</input>
			<output>
				<port id="1" precision="FP16">
					<dim>1</dim>
					<dim>256</dim>
					<dim>1</dim>
					<dim>1</dim>
				</port>
			</output>
		</layer>
		<layer id="176" name="18441848_const" type="Const" version="opset1">
			<data element_type="f16" offset="448" shape="" size="2"/>
			<output>
				<port id="1" precision="FP16"/>
			</output>
		</layer>
		<layer id="177" name="18451849_const" type="Const" version="opset1">
			<data element_type="f16" offset="1616770" shape="" size="2"/>
			<output>
				<port id="1" precision="FP16"/>
			</output>
		</layer>
		<layer id="178" name="18461850_const" type="Const" version="opset1">
			<data element_type="f16" offset="448" shape="" size="2"/>
			<output>
				<port id="1" precision="FP16"/>
			</output>
		</layer>
		<layer id="179" name="18471851_const" type="Const" version="opset1">
			<data element_type="f16" offset="1616770" shape="" size="2"/>
			<output>
				<port id="1" precision="FP16"/>
			</output>
		</layer>
		<layer id="180" name="landmarks_fc_leye_corner_x_new/WithoutBiases/fq_input_0" type="FakeQuantize" version="opset1">
			<data levels="256"/>
			<input>
				<port id="0">
					<dim>1</dim>
					<dim>256</dim>
					<dim>1</dim>
					<dim>1</dim>
				</port>
				<port id="1"/>
				<port id="2"/>
				<port id="3"/>
				<port id="4"/>
			</input>
			<output>
				<port id="5" precision="FP16">
					<dim>1</dim>
					<dim>256</dim>
					<dim>1</dim>
					<dim>1</dim>
				</port>
			</output>
		</layer>
		<layer id="181" name="landmarks_fc_leye_corner_x_new/WithoutBiases/fq_weights_1/Convert_to_float/Cast_09639_const" type="Const" version="opset1">
			<data element_type="u8" offset="1616772" shape="60,256,1,1" size="15360"/>
			<output>
				<port id="1" precision="U8">
					<dim>60</dim>
					<dim>256</dim>
					<dim>1</dim>
					<dim>1</dim>
				</port>
			</output>
		</layer>
		<layer id="182" name="landmarks_fc_leye_corner_x_new/WithoutBiases/fq_weights_1/Convert_to_float" type="Convert" version="opset1">
			<data destination_type="f16"/>
			<input>
				<port id="0">
					<dim>60</dim>
					<dim>256</dim>
					<dim>1</dim>
					<dim>1</dim>
				</port>
			</input>
			<output>
				<port id="1" precision="FP16">
					<dim>60</dim>
					<dim>256</dim>
					<dim>1</dim>
					<dim>1</dim>
				</port>
			</output>
		</layer>
		<layer id="183" name="landmarks_fc_leye_corner_x_new/WithoutBiases/fq_weights_1/Copy/out_low8522_const" type="Const" version="opset1">
			<data element_type="f16" offset="448" shape="1" size="2"/>
			<output>
				<port id="1" precision="FP16">
					<dim>1</dim>
				</port>
			</output>
		</layer>
		<layer id="184" name="landmarks_fc_leye_corner_x_new/WithoutBiases/fq_weights_1/Copy/out_high8523_const" type="Const" version="opset1">
			<data element_type="f16" offset="450" shape="1" size="2"/>
			<output>
				<port id="1" precision="FP16">
					<dim>1</dim>
				</port>
			</output>
		</layer>
		<layer id="185" name="18561860_const" type="Const" version="opset1">
			<data element_type="f16" offset="1632132" shape="60,1,1,1" size="120"/>
			<output>
				<port id="1" precision="FP16">
					<dim>60</dim>
					<dim>1</dim>
					<dim>1</dim>
					<dim>1</dim>
				</port>
			</output>
		</layer>
		<layer id="186" name="18571861_const" type="Const" version="opset1">
			<data element_type="f16" offset="1632252" shape="60,1,1,1" size="120"/>
			<output>
				<port id="1" precision="FP16">
					<dim>60</dim>
					<dim>1</dim>
					<dim>1</dim>
					<dim>1</dim>
				</port>
			</output>
		</layer>
		<layer id="187" name="landmarks_fc_leye_corner_x_new/WithoutBiases/fq_weights_1" type="FakeQuantize" version="opset1">
			<data levels="255"/>
			<input>
				<port id="0">
					<dim>60</dim>
					<dim>256</dim>
					<dim>1</dim>
					<dim>1</dim>
				</port>
				<port id="1">
					<dim>1</dim>
				</port>
				<port id="2">
					<dim>1</dim>
				</port>
				<port id="3">
					<dim>60</dim>
					<dim>1</dim>
					<dim>1</dim>
					<dim>1</dim>
				</port>
				<port id="4">
					<dim>60</dim>
					<dim>1</dim>
					<dim>1</dim>
					<dim>1</dim>
				</port>
			</input>
			<output>
				<port id="5" precision="FP16">
					<dim>60</dim>
					<dim>256</dim>
					<dim>1</dim>
					<dim>1</dim>
				</port>
			</output>
		</layer>
		<layer id="188" name="landmarks_fc_leye_corner_x_new/WithoutBiases" type="Convolution" version="opset1">
			<data dilations="1,1" output_padding="0,0" pads_begin="0,0" pads_end="0,0" strides="1,1"/>
			<input>
				<port id="0">
					<dim>1</dim>
					<dim>256</dim>
					<dim>1</dim>
					<dim>1</dim>
				</port>
				<port id="1">
					<dim>60</dim>
					<dim>256</dim>
					<dim>1</dim>
					<dim>1</dim>
				</port>
			</input>
			<output>
				<port id="2" precision="FP16">
					<dim>1</dim>
					<dim>60</dim>
					<dim>1</dim>
					<dim>1</dim>
				</port>
			</output>
		</layer>
		<layer id="189" name="landmarks_fc_leye_corner_x_new/Dims4887/copy_const519_const" type="Const" version="opset1">
			<data element_type="f16" offset="1632372" shape="1,60,1,1" size="120"/>
			<output>
				<port id="1" precision="FP16">
					<dim>1</dim>
					<dim>60</dim>
					<dim>1</dim>
					<dim>1</dim>
				</port>
			</output>
		</layer>
		<layer id="190" name="landmarks_fc_leye_corner_x_new" type="Add" version="opset1">
			<input>
				<port id="0">
					<dim>1</dim>
					<dim>60</dim>
					<dim>1</dim>
					<dim>1</dim>
				</port>
				<port id="1">
					<dim>1</dim>
					<dim>60</dim>
					<dim>1</dim>
					<dim>1</dim>
				</port>
			</input>
			<output>
				<port id="2" precision="FP16">
					<dim>1</dim>
					<dim>60</dim>
					<dim>1</dim>
					<dim>1</dim>
				</port>
			</output>
		</layer>
		<layer id="191" name="softmax_landmarks_leye_corner_x" type="SoftMax" version="opset1">
			<data axis="1"/>
			<input>
				<port id="0">
					<dim>1</dim>
					<dim>60</dim>
					<dim>1</dim>
					<dim>1</dim>
				</port>
			</input>
			<output>
				<port id="1" precision="FP16">
					<dim>1</dim>
					<dim>60</dim>
					<dim>1</dim>
					<dim>1</dim>
				</port>
			</output>
		</layer>
		<layer id="192" name="41914195_const" type="Const" version="opset1">
			<data element_type="f16" offset="448" shape="" size="2"/>
			<output>
				<port id="1" precision="FP16"/>
			</output>
		</layer>
		<layer id="193" name="41924196_const" type="Const" version="opset1">
			<data element_type="f16" offset="1632492" shape="" size="2"/>
			<output>
				<port id="1" precision="FP16"/>
			</output>
		</layer>
		<layer id="194" name="41934197_const" type="Const" version="opset1">
			<data element_type="f16" offset="448" shape="" size="2"/>
			<output>
				<port id="1" precision="FP16"/>
			</output>
		</layer>
		<layer id="195" name="41944198_const" type="Const" version="opset1">
			<data element_type="f16" offset="1632492" shape="" size="2"/>
			<output>
				<port id="1" precision="FP16"/>
			</output>
		</layer>
		<layer id="196" name="raw_predicts/fq_input_0" type="FakeQuantize" version="opset1">
			<data levels="256"/>
			<input>
				<port id="0">
					<dim>1</dim>
					<dim>60</dim>
					<dim>1</dim>
					<dim>1</dim>
				</port>
				<port id="1"/>
				<port id="2"/>
				<port id="3"/>
				<port id="4"/>
			</input>
			<output>
				<port id="5" precision="FP16">
					<dim>1</dim>
					<dim>60</dim>
					<dim>1</dim>
					<dim>1</dim>
				</port>
			</output>
		</layer>
		<layer id="197" name="landmarks_fc_leye_corner_y_new/WithoutBiases/fq_weights_1/Convert_to_float/Cast_09613_const" type="Const" version="opset1">
			<data element_type="u8" offset="1632494" shape="60,256,1,1" size="15360"/>
			<output>
				<port id="1" precision="U8">
					<dim>60</dim>
					<dim>256</dim>
					<dim>1</dim>
					<dim>1</dim>
				</port>
			</output>
		</layer>
		<layer id="198" name="landmarks_fc_leye_corner_y_new/WithoutBiases/fq_weights_1/Convert_to_float" type="Convert" version="opset1">
			<data destination_type="f16"/>
			<input>
				<port id="0">
					<dim>60</dim>
					<dim>256</dim>
					<dim>1</dim>
					<dim>1</dim>
				</port>
			</input>
			<output>
				<port id="1" precision="FP16">
					<dim>60</dim>
					<dim>256</dim>
					<dim>1</dim>
					<dim>1</dim>
				</port>
			</output>
		</layer>
		<layer id="199" name="landmarks_fc_leye_corner_y_new/WithoutBiases/fq_weights_1/Copy/out_low8234_const" type="Const" version="opset1">
			<data element_type="f16" offset="448" shape="1" size="2"/>
			<output>
				<port id="1" precision="FP16">
					<dim>1</dim>
				</port>
			</output>
		</layer>
		<layer id="200" name="landmarks_fc_leye_corner_y_new/WithoutBiases/fq_weights_1/Copy/out_high8235_const" type="Const" version="opset1">
			<data element_type="f16" offset="450" shape="1" size="2"/>
			<output>
				<port id="1" precision="FP16">
					<dim>1</dim>
				</port>
			</output>
		</layer>
		<layer id="201" name="22562260_const" type="Const" version="opset1">
			<data element_type="f16" offset="1647854" shape="60,1,1,1" size="120"/>
			<output>
				<port id="1" precision="FP16">
					<dim>60</dim>
					<dim>1</dim>
					<dim>1</dim>
					<dim>1</dim>
				</port>
			</output>
		</layer>
		<layer id="202" name="22572261_const" type="Const" version="opset1">
			<data element_type="f16" offset="1647974" shape="60,1,1,1" size="120"/>
			<output>
				<port id="1" precision="FP16">
					<dim>60</dim>
					<dim>1</dim>
					<dim>1</dim>
					<dim>1</dim>
				</port>
			</output>
		</layer>
		<layer id="203" name="landmarks_fc_leye_corner_y_new/WithoutBiases/fq_weights_1" type="FakeQuantize" version="opset1">
			<data levels="255"/>
			<input>
				<port id="0">
					<dim>60</dim>
					<dim>256</dim>
					<dim>1</dim>
					<dim>1</dim>
				</port>
				<port id="1">
					<dim>1</dim>
				</port>
				<port id="2">
					<dim>1</dim>
				</port>
				<port id="3">
					<dim>60</dim>
					<dim>1</dim>
					<dim>1</dim>
					<dim>1</dim>
				</port>
				<port id="4">
					<dim>60</dim>
					<dim>1</dim>
					<dim>1</dim>
					<dim>1</dim>
				</port>
			</input>
			<output>
				<port id="5" precision="FP16">
					<dim>60</dim>
					<dim>256</dim>
					<dim>1</dim>
					<dim>1</dim>
				</port>
			</output>
		</layer>
		<layer id="204" name="landmarks_fc_leye_corner_y_new/WithoutBiases" type="Convolution" version="opset1">
			<data dilations="1,1" output_padding="0,0" pads_begin="0,0" pads_end="0,0" strides="1,1"/>
			<input>
				<port id="0">
					<dim>1</dim>
					<dim>256</dim>
					<dim>1</dim>
					<dim>1</dim>
				</port>
				<port id="1">
					<dim>60</dim>
					<dim>256</dim>
					<dim>1</dim>
					<dim>1</dim>
				</port>
			</input>
			<output>
				<port id="2" precision="FP16">
					<dim>1</dim>
					<dim>60</dim>
					<dim>1</dim>
					<dim>1</dim>
				</port>
			</output>
		</layer>
		<layer id="205" name="landmarks_fc_leye_corner_y_new/Dims4611/copy_const524_const" type="Const" version="opset1">
			<data element_type="f16" offset="1648094" shape="1,60,1,1" size="120"/>
			<output>
				<port id="1" precision="FP16">
					<dim>1</dim>
					<dim>60</dim>
					<dim>1</dim>
					<dim>1</dim>
				</port>
			</output>
		</layer>
		<layer id="206" name="landmarks_fc_leye_corner_y_new" type="Add" version="opset1">
			<input>
				<port id="0">
					<dim>1</dim>
					<dim>60</dim>
					<dim>1</dim>
					<dim>1</dim>
				</port>
				<port id="1">
					<dim>1</dim>
					<dim>60</dim>
					<dim>1</dim>
					<dim>1</dim>
				</port>
			</input>
			<output>
				<port id="2" precision="FP16">
					<dim>1</dim>
					<dim>60</dim>
					<dim>1</dim>
					<dim>1</dim>
				</port>
			</output>
		</layer>
		<layer id="207" name="softmax_landmarks_leye_corner_y" type="SoftMax" version="opset1">
			<data axis="1"/>
			<input>
				<port id="0">
					<dim>1</dim>
					<dim>60</dim>
					<dim>1</dim>
					<dim>1</dim>
				</port>
			</input>
			<output>
				<port id="1" precision="FP16">
					<dim>1</dim>
					<dim>60</dim>
					<dim>1</dim>
					<dim>1</dim>
				</port>
			</output>
		</layer>
		<layer id="208" name="42014205_const" type="Const" version="opset1">
			<data element_type="f16" offset="448" shape="" size="2"/>
			<output>
				<port id="1" precision="FP16"/>
			</output>
		</layer>
		<layer id="209" name="42024206_const" type="Const" version="opset1">
			<data element_type="f16" offset="1648214" shape="" size="2"/>
			<output>
				<port id="1" precision="FP16"/>
			</output>
		</layer>
		<layer id="210" name="42034207_const" type="Const" version="opset1">
			<data element_type="f16" offset="448" shape="" size="2"/>
			<output>
				<port id="1" precision="FP16"/>
			</output>
		</layer>
		<layer id="211" name="42044208_const" type="Const" version="opset1">
			<data element_type="f16" offset="1648214" shape="" size="2"/>
			<output>
				<port id="1" precision="FP16"/>
			</output>
		</layer>
		<layer id="212" name="raw_predicts/fq_input_1" type="FakeQuantize" version="opset1">
			<data levels="256"/>
			<input>
				<port id="0">
					<dim>1</dim>
					<dim>60</dim>
					<dim>1</dim>
					<dim>1</dim>
				</port>
				<port id="1"/>
				<port id="2"/>
				<port id="3"/>
				<port id="4"/>
			</input>
			<output>
				<port id="5" precision="FP16">
					<dim>1</dim>
					<dim>60</dim>
					<dim>1</dim>
					<dim>1</dim>
				</port>
			</output>
		</layer>
		<layer id="213" name="landmarks_fc_leye_x_new/WithoutBiases/fq_weights_1/Convert_to_float/Cast_09623_const" type="Const" version="opset1">
			<data element_type="u8" offset="1648216" shape="60,256,1,1" size="15360"/>
			<output>
				<port id="1" precision="U8">
					<dim>60</dim>
					<dim>256</dim>
					<dim>1</dim>
					<dim>1</dim>
				</port>
			</output>
		</layer>
		<layer id="214" name="landmarks_fc_leye_x_new/WithoutBiases/fq_weights_1/Convert_to_float" type="Convert" version="opset1">
			<data destination_type="f16"/>
			<input>
				<port id="0">
					<dim>60</dim>
					<dim>256</dim>
					<dim>1</dim>
					<dim>1</dim>
				</port>
			</input>
			<output>
				<port id="1" precision="FP16">
					<dim>60</dim>
					<dim>256</dim>
					<dim>1</dim>
					<dim>1</dim>
				</port>
			</output>
		</layer>
		<layer id="215" name="landmarks_fc_leye_x_new/WithoutBiases/fq_weights_1/Copy/out_low7954_const" type="Const" version="opset1">
			<data element_type="f16" offset="448" shape="1" size="2"/>
			<output>
				<port id="1" precision="FP16">
					<dim>1</dim>
				</port>
			</output>
		</layer>
		<layer id="216" name="landmarks_fc_leye_x_new/WithoutBiases/fq_weights_1/Copy/out_high7955_const" type="Const" version="opset1">
			<data element_type="f16" offset="450" shape="1" size="2"/>
			<output>
				<port id="1" precision="FP16">
					<dim>1</dim>
				</port>
			</output>
		</layer>
		<layer id="217" name="24362440_const" type="Const" version="opset1">
			<data element_type="f16" offset="1663576" shape="60,1,1,1" size="120"/>
			<output>
				<port id="1" precision="FP16">
					<dim>60</dim>
					<dim>1</dim>
					<dim>1</dim>
					<dim>1</dim>
				</port>
			</output>
		</layer>
		<layer id="218" name="24372441_const" type="Const" version="opset1">
			<data element_type="f16" offset="1663696" shape="60,1,1,1" size="120"/>
			<output>
				<port id="1" precision="FP16">
					<dim>60</dim>
					<dim>1</dim>
					<dim>1</dim>
					<dim>1</dim>
				</port>
			</output>
		</layer>
		<layer id="219" name="landmarks_fc_leye_x_new/WithoutBiases/fq_weights_1" type="FakeQuantize" version="opset1">
			<data levels="255"/>
			<input>
				<port id="0">
					<dim>60</dim>
					<dim>256</dim>
					<dim>1</dim>
					<dim>1</dim>
				</port>
				<port id="1">
					<dim>1</dim>
				</port>
				<port id="2">
					<dim>1</dim>
				</port>
				<port id="3">
					<dim>60</dim>
					<dim>1</dim>
					<dim>1</dim>
					<dim>1</dim>
				</port>
				<port id="4">
					<dim>60</dim>
					<dim>1</dim>
					<dim>1</dim>
					<dim>1</dim>
				</port>
			</input>
			<output>
				<port id="5" precision="FP16">
					<dim>60</dim>
					<dim>256</dim>
					<dim>1</dim>
					<dim>1</dim>
				</port>
			</output>
		</layer>
		<layer id="220" name="landmarks_fc_leye_x_new/WithoutBiases" type="Convolution" version="opset1">
			<data dilations="1,1" output_padding="0,0" pads_begin="0,0" pads_end="0,0" strides="1,1"/>
			<input>
				<port id="0">
					<dim>1</dim>
					<dim>256</dim>
					<dim>1</dim>
					<dim>1</dim>
				</port>
				<port id="1">
					<dim>60</dim>
					<dim>256</dim>
					<dim>1</dim>
					<dim>1</dim>
				</port>
			</input>
			<output>
				<port id="2" precision="FP16">
					<dim>1</dim>
					<dim>60</dim>
					<dim>1</dim>
					<dim>1</dim>
				</port>
			</output>
		</layer>
		<layer id="221" name="landmarks_fc_leye_x_new/Dims4575/copy_const529_const" type="Const" version="opset1">
			<data element_type="f16" offset="1663816" shape="1,60,1,1" size="120"/>
			<output>
				<port id="1" precision="FP16">
					<dim>1</dim>
					<dim>60</dim>
					<dim>1</dim>
					<dim>1</dim>
				</port>
			</output>
		</layer>
		<layer id="222" name="landmarks_fc_leye_x_new" type="Add" version="opset1">
			<input>
				<port id="0">
					<dim>1</dim>
					<dim>60</dim>
					<dim>1</dim>
					<dim>1</dim>
				</port>
				<port id="1">
					<dim>1</dim>
					<dim>60</dim>
					<dim>1</dim>
					<dim>1</dim>
				</port>
			</input>
			<output>
				<port id="2" precision="FP16">
					<dim>1</dim>
					<dim>60</dim>
					<dim>1</dim>
					<dim>1</dim>
				</port>
			</output>
		</layer>
		<layer id="223" name="softmax_landmarks_leye_x" type="SoftMax" version="opset1">
			<data axis="1"/>
			<input>
				<port id="0">
					<dim>1</dim>
					<dim>60</dim>
					<dim>1</dim>
					<dim>1</dim>
				</port>
			</input>
			<output>
				<port id="1" precision="FP16">
					<dim>1</dim>
					<dim>60</dim>
					<dim>1</dim>
					<dim>1</dim>
				</port>
			</output>
		</layer>
		<layer id="224" name="43114315_const" type="Const" version="opset1">
			<data element_type="f16" offset="448" shape="" size="2"/>
			<output>
				<port id="1" precision="FP16"/>
			</output>
		</layer>
		<layer id="225" name="43124316_const" type="Const" version="opset1">
			<data element_type="f16" offset="1663936" shape="" size="2"/>
			<output>
				<port id="1" precision="FP16"/>
			</output>
		</layer>
		<layer id="226" name="43134317_const" type="Const" version="opset1">
			<data element_type="f16" offset="448" shape="" size="2"/>
			<output>
				<port id="1" precision="FP16"/>
			</output>
		</layer>
		<layer id="227" name="43144318_const" type="Const" version="opset1">
			<data element_type="f16" offset="1663936" shape="" size="2"/>
			<output>
				<port id="1" precision="FP16"/>
			</output>
		</layer>
		<layer id="228" name="raw_predicts/fq_input_2" type="FakeQuantize" version="opset1">
			<data levels="256"/>
			<input>
				<port id="0">
					<dim>1</dim>
					<dim>60</dim>
					<dim>1</dim>
					<dim>1</dim>
				</port>
				<port id="1"/>
				<port id="2"/>
				<port id="3"/>
				<port id="4"/>
			</input>
			<output>
				<port id="5" precision="FP16">
					<dim>1</dim>
					<dim>60</dim>
					<dim>1</dim>
					<dim>1</dim>
				</port>
			</output>
		</layer>
		<layer id="229" name="landmarks_fc_leye_y_new/WithoutBiases/fq_weights_1/Convert_to_float/Cast_09609_const" type="Const" version="opset1">
			<data element_type="u8" offset="1663938" shape="60,256,1,1" size="15360"/>
			<output>
				<port id="1" precision="U8">
					<dim>60</dim>
					<dim>256</dim>
					<dim>1</dim>
					<dim>1</dim>
				</port>
			</output>
		</layer>
		<layer id="230" name="landmarks_fc_leye_y_new/WithoutBiases/fq_weights_1/Convert_to_float" type="Convert" version="opset1">
			<data destination_type="f16"/>
			<input>
				<port id="0">
					<dim>60</dim>
					<dim>256</dim>
					<dim>1</dim>
					<dim>1</dim>
				</port>
			</input>
			<output>
				<port id="1" precision="FP16">
					<dim>60</dim>
					<dim>256</dim>
					<dim>1</dim>
					<dim>1</dim>
				</port>
			</output>
		</layer>
		<layer id="231" name="landmarks_fc_leye_y_new/WithoutBiases/fq_weights_1/Copy/out_low8130_const" type="Const" version="opset1">
			<data element_type="f16" offset="448" shape="1" size="2"/>
			<output>
				<port id="1" precision="FP16">
					<dim>1</dim>
				</port>
			</output>
		</layer>
		<layer id="232" name="landmarks_fc_leye_y_new/WithoutBiases/fq_weights_1/Copy/out_high8131_const" type="Const" version="opset1">
			<data element_type="f16" offset="450" shape="1" size="2"/>
			<output>
				<port id="1" precision="FP16">
					<dim>1</dim>
				</port>
			</output>
		</layer>
		<layer id="233" name="30763080_const" type="Const" version="opset1">
			<data element_type="f16" offset="1679298" shape="60,1,1,1" size="120"/>
			<output>
				<port id="1" precision="FP16">
					<dim>60</dim>
					<dim>1</dim>
					<dim>1</dim>
					<dim>1</dim>
				</port>
			</output>
		</layer>
		<layer id="234" name="30773081_const" type="Const" version="opset1">
			<data element_type="f16" offset="1679418" shape="60,1,1,1" size="120"/>
			<output>
				<port id="1" precision="FP16">
					<dim>60</dim>
					<dim>1</dim>
					<dim>1</dim>
					<dim>1</dim>
				</port>
			</output>
		</layer>
		<layer id="235" name="landmarks_fc_leye_y_new/WithoutBiases/fq_weights_1" type="FakeQuantize" version="opset1">
			<data levels="255"/>
			<input>
				<port id="0">
					<dim>60</dim>
					<dim>256</dim>
					<dim>1</dim>
					<dim>1</dim>
				</port>
				<port id="1">
					<dim>1</dim>
				</port>
				<port id="2">
					<dim>1</dim>
				</port>
				<port id="3">
					<dim>60</dim>
					<dim>1</dim>
					<dim>1</dim>
					<dim>1</dim>
				</port>
				<port id="4">
					<dim>60</dim>
					<dim>1</dim>
					<dim>1</dim>
					<dim>1</dim>
				</port>
			</input>
			<output>
				<port id="5" precision="FP16">
					<dim>60</dim>
					<dim>256</dim>
					<dim>1</dim>
					<dim>1</dim>
				</port>
			</output>
		</layer>
		<layer id="236" name="landmarks_fc_leye_y_new/WithoutBiases" type="Convolution" version="opset1">
			<data dilations="1,1" output_padding="0,0" pads_begin="0,0" pads_end="0,0" strides="1,1"/>
			<input>
				<port id="0">
					<dim>1</dim>
					<dim>256</dim>
					<dim>1</dim>
					<dim>1</dim>
				</port>
				<port id="1">
					<dim>60</dim>
					<dim>256</dim>
					<dim>1</dim>
					<dim>1</dim>
				</port>
			</input>
			<output>
				<port id="2" precision="FP16">
					<dim>1</dim>
					<dim>60</dim>
					<dim>1</dim>
					<dim>1</dim>
				</port>
			</output>
		</layer>
		<layer id="237" name="landmarks_fc_leye_y_new/Dims4761/copy_const534_const" type="Const" version="opset1">
			<data element_type="f16" offset="1679538" shape="1,60,1,1" size="120"/>
			<output>
				<port id="1" precision="FP16">
					<dim>1</dim>
					<dim>60</dim>
					<dim>1</dim>
					<dim>1</dim>
				</port>
			</output>
		</layer>
		<layer id="238" name="landmarks_fc_leye_y_new" type="Add" version="opset1">
			<input>
				<port id="0">
					<dim>1</dim>
					<dim>60</dim>
					<dim>1</dim>
					<dim>1</dim>
				</port>
				<port id="1">
					<dim>1</dim>
					<dim>60</dim>
					<dim>1</dim>
					<dim>1</dim>
				</port>
			</input>
			<output>
				<port id="2" precision="FP16">
					<dim>1</dim>
					<dim>60</dim>
					<dim>1</dim>
					<dim>1</dim>
				</port>
			</output>
		</layer>
		<layer id="239" name="softmax_landmarks_leye_y" type="SoftMax" version="opset1">
			<data axis="1"/>
			<input>
				<port id="0">
					<dim>1</dim>
					<dim>60</dim>
					<dim>1</dim>
					<dim>1</dim>
				</port>
			</input>
			<output>
				<port id="1" precision="FP16">
					<dim>1</dim>
					<dim>60</dim>
					<dim>1</dim>
					<dim>1</dim>
				</port>
			</output>
		</layer>
		<layer id="240" name="44214425_const" type="Const" version="opset1">
			<data element_type="f16" offset="448" shape="" size="2"/>
			<output>
				<port id="1" precision="FP16"/>
			</output>
		</layer>
		<layer id="241" name="44224426_const" type="Const" version="opset1">
			<data element_type="f16" offset="1679658" shape="" size="2"/>
			<output>
				<port id="1" precision="FP16"/>
			</output>
		</layer>
		<layer id="242" name="44234427_const" type="Const" version="opset1">
			<data element_type="f16" offset="448" shape="" size="2"/>
			<output>
				<port id="1" precision="FP16"/>
			</output>
		</layer>
		<layer id="243" name="44244428_const" type="Const" version="opset1">
			<data element_type="f16" offset="1679658" shape="" size="2"/>
			<output>
				<port id="1" precision="FP16"/>
			</output>
		</layer>
		<layer id="244" name="raw_predicts/fq_input_3" type="FakeQuantize" version="opset1">
			<data levels="256"/>
			<input>
				<port id="0">
					<dim>1</dim>
					<dim>60</dim>
					<dim>1</dim>
					<dim>1</dim>
				</port>
				<port id="1"/>
				<port id="2"/>
				<port id="3"/>
				<port id="4"/>
			</input>
			<output>
				<port id="5" precision="FP16">
					<dim>1</dim>
					<dim>60</dim>
					<dim>1</dim>
					<dim>1</dim>
				</port>
			</output>
		</layer>
		<layer id="245" name="landmarks_conv_reye/WithoutBiases/fq_weights_1/Convert_to_float/Cast_09641_const" type="Const" version="opset1">
			<data element_type="u8" offset="1679660" shape="256,512,1,1" size="131072"/>
			<output>
				<port id="1" precision="U8">
					<dim>256</dim>
					<dim>512</dim>
					<dim>1</dim>
					<dim>1</dim>
				</port>
			</output>
		</layer>
		<layer id="246" name="landmarks_conv_reye/WithoutBiases/fq_weights_1/Convert_to_float" type="Convert" version="opset1">
			<data destination_type="f16"/>
			<input>
				<port id="0">
					<dim>256</dim>
					<dim>512</dim>
					<dim>1</dim>
					<dim>1</dim>
				</port>
			</input>
			<output>
				<port id="1" precision="FP16">
					<dim>256</dim>
					<dim>512</dim>
					<dim>1</dim>
					<dim>1</dim>
				</port>
			</output>
		</layer>
		<layer id="247" name="landmarks_conv_reye/WithoutBiases/fq_weights_1/Copy/out_low8602_const" type="Const" version="opset1">
			<data element_type="f16" offset="448" shape="1" size="2"/>
			<output>
				<port id="1" precision="FP16">
					<dim>1</dim>
				</port>
			</output>
		</layer>
		<layer id="248" name="landmarks_conv_reye/WithoutBiases/fq_weights_1/Copy/out_high8603_const" type="Const" version="opset1">
			<data element_type="f16" offset="450" shape="1" size="2"/>
			<output>
				<port id="1" precision="FP16">
					<dim>1</dim>
				</port>
			</output>
		</layer>
		<layer id="249" name="16361640_const" type="Const" version="opset1">
			<data element_type="f16" offset="1810732" shape="256,1,1,1" size="512"/>
			<output>
				<port id="1" precision="FP16">
					<dim>256</dim>
					<dim>1</dim>
					<dim>1</dim>
					<dim>1</dim>
				</port>
			</output>
		</layer>
		<layer id="250" name="16371641_const" type="Const" version="opset1">
			<data element_type="f16" offset="1811244" shape="256,1,1,1" size="512"/>
			<output>
				<port id="1" precision="FP16">
					<dim>256</dim>
					<dim>1</dim>
					<dim>1</dim>
					<dim>1</dim>
				</port>
			</output>
		</layer>
		<layer id="251" name="landmarks_conv_reye/WithoutBiases/fq_weights_1" type="FakeQuantize" version="opset1">
			<data levels="255"/>
			<input>
				<port id="0">
					<dim>256</dim>
					<dim>512</dim>
					<dim>1</dim>
					<dim>1</dim>
				</port>
				<port id="1">
					<dim>1</dim>
				</port>
				<port id="2">
					<dim>1</dim>
				</port>
				<port id="3">
					<dim>256</dim>
					<dim>1</dim>
					<dim>1</dim>
					<dim>1</dim>
				</port>
				<port id="4">
					<dim>256</dim>
					<dim>1</dim>
					<dim>1</dim>
					<dim>1</dim>
				</port>
			</input>
			<output>
				<port id="5" precision="FP16">
					<dim>256</dim>
					<dim>512</dim>
					<dim>1</dim>
					<dim>1</dim>
				</port>
			</output>
		</layer>
		<layer id="252" name="landmarks_conv_reye/WithoutBiases" type="Convolution" version="opset1">
			<data dilations="1,1" output_padding="0,0" pads_begin="0,0" pads_end="0,0" strides="1,1"/>
			<input>
				<port id="0">
					<dim>1</dim>
					<dim>512</dim>
					<dim>1</dim>
					<dim>1</dim>
				</port>
				<port id="1">
					<dim>256</dim>
					<dim>512</dim>
					<dim>1</dim>
					<dim>1</dim>
				</port>
			</input>
			<output>
				<port id="2" precision="FP16">
					<dim>1</dim>
					<dim>256</dim>
					<dim>1</dim>
					<dim>1</dim>
				</port>
			</output>
		</layer>
		<layer id="253" name="data_add_78337838/copy_const539_const" type="Const" version="opset1">
			<data element_type="f16" offset="1811756" shape="1,256,1,1" size="512"/>
			<output>
				<port id="1" precision="FP16">
					<dim>1</dim>
					<dim>256</dim>
					<dim>1</dim>
					<dim>1</dim>
				</port>
			</output>
		</layer>
		<layer id="254" name="landmarks_conv_reye/Fused_Add_" type="Add" version="opset1">
			<input>
				<port id="0">
					<dim>1</dim>
					<dim>256</dim>
					<dim>1</dim>
					<dim>1</dim>
				</port>
				<port id="1">
					<dim>1</dim>
					<dim>256</dim>
					<dim>1</dim>
					<dim>1</dim>
				</port>
			</input>
			<output>
				<port id="2" precision="FP16">
					<dim>1</dim>
					<dim>256</dim>
					<dim>1</dim>
					<dim>1</dim>
				</port>
			</output>
		</layer>
		<layer id="255" name="relu_reye" type="ReLU" version="opset1">
			<input>
				<port id="0">
					<dim>1</dim>
					<dim>256</dim>
					<dim>1</dim>
					<dim>1</dim>
				</port>
			</input>
			<output>
				<port id="1" precision="FP16">
					<dim>1</dim>
					<dim>256</dim>
					<dim>1</dim>
					<dim>1</dim>
				</port>
			</output>
		</layer>
		<layer id="256" name="22842288_const" type="Const" version="opset1">
			<data element_type="f16" offset="448" shape="" size="2"/>
			<output>
				<port id="1" precision="FP16"/>
			</output>
		</layer>
		<layer id="257" name="22852289_const" type="Const" version="opset1">
			<data element_type="f16" offset="1812268" shape="" size="2"/>
			<output>
				<port id="1" precision="FP16"/>
			</output>
		</layer>
		<layer id="258" name="22862290_const" type="Const" version="opset1">
			<data element_type="f16" offset="448" shape="" size="2"/>
			<output>
				<port id="1" precision="FP16"/>
			</output>
		</layer>
		<layer id="259" name="22872291_const" type="Const" version="opset1">
			<data element_type="f16" offset="1812268" shape="" size="2"/>
			<output>
				<port id="1" precision="FP16"/>
			</output>
		</layer>
		<layer id="260" name="landmarks_fc_reye_corner_x_new/WithoutBiases/fq_input_0" type="FakeQuantize" version="opset1">
			<data levels="256"/>
			<input>
				<port id="0">
					<dim>1</dim>
					<dim>256</dim>
					<dim>1</dim>
					<dim>1</dim>
				</port>
				<port id="1"/>
				<port id="2"/>
				<port id="3"/>
				<port id="4"/>
			</input>
			<output>
				<port id="5" precision="FP16">
					<dim>1</dim>
					<dim>256</dim>
					<dim>1</dim>
					<dim>1</dim>
				</port>
			</output>
		</layer>
		<layer id="261" name="landmarks_fc_reye_x_new/WithoutBiases/fq_weights_1/Convert_to_float/Cast_09517_const" type="Const" version="opset1">
			<data element_type="u8" offset="1812270" shape="60,256,1,1" size="15360"/>
			<output>
				<port id="1" precision="U8">
					<dim>60</dim>
					<dim>256</dim>
					<dim>1</dim>
					<dim>1</dim>
				</port>
			</output>
		</layer>
		<layer id="262" name="landmarks_fc_reye_x_new/WithoutBiases/fq_weights_1/Convert_to_float" type="Convert" version="opset1">
			<data destination_type="f16"/>
			<input>
				<port id="0">
					<dim>60</dim>
					<dim>256</dim>
					<dim>1</dim>
					<dim>1</dim>
				</port>
			</input>
			<output>
				<port id="1" precision="FP16">
					<dim>60</dim>
					<dim>256</dim>
					<dim>1</dim>
					<dim>1</dim>
				</port>
			</output>
		</layer>
		<layer id="263" name="landmarks_fc_reye_x_new/WithoutBiases/fq_weights_1/Copy/out_low8258_const" type="Const" version="opset1">
			<data element_type="f16" offset="448" shape="1" size="2"/>
			<output>
				<port id="1" precision="FP16">
					<dim>1</dim>
				</port>
			</output>
		</layer>
		<layer id="264" name="landmarks_fc_reye_x_new/WithoutBiases/fq_weights_1/Copy/out_high8259_const" type="Const" version="opset1">
			<data element_type="f16" offset="450" shape="1" size="2"/>
			<output>
				<port id="1" precision="FP16">
					<dim>1</dim>
				</port>
			</output>
		</layer>
		<layer id="265" name="32363240_const" type="Const" version="opset1">
			<data element_type="f16" offset="1827630" shape="60,1,1,1" size="120"/>
			<output>
				<port id="1" precision="FP16">
					<dim>60</dim>
					<dim>1</dim>
					<dim>1</dim>
					<dim>1</dim>
				</port>
			</output>
		</layer>
		<layer id="266" name="32373241_const" type="Const" version="opset1">
			<data element_type="f16" offset="1827750" shape="60,1,1,1" size="120"/>
			<output>
				<port id="1" precision="FP16">
					<dim>60</dim>
					<dim>1</dim>
					<dim>1</dim>
					<dim>1</dim>
				</port>
			</output>
		</layer>
		<layer id="267" name="landmarks_fc_reye_x_new/WithoutBiases/fq_weights_1" type="FakeQuantize" version="opset1">
			<data levels="255"/>
			<input>
				<port id="0">
					<dim>60</dim>
					<dim>256</dim>
					<dim>1</dim>
					<dim>1</dim>
				</port>
				<port id="1">
					<dim>1</dim>
				</port>
				<port id="2">
					<dim>1</dim>
				</port>
				<port id="3">
					<dim>60</dim>
					<dim>1</dim>
					<dim>1</dim>
					<dim>1</dim>
				</port>
				<port id="4">
					<dim>60</dim>
					<dim>1</dim>
					<dim>1</dim>
					<dim>1</dim>
				</port>
			</input>
			<output>
				<port id="5" precision="FP16">
					<dim>60</dim>
					<dim>256</dim>
					<dim>1</dim>
					<dim>1</dim>
				</port>
			</output>
		</layer>
		<layer id="268" name="landmarks_fc_reye_x_new/WithoutBiases" type="Convolution" version="opset1">
			<data dilations="1,1" output_padding="0,0" pads_begin="0,0" pads_end="0,0" strides="1,1"/>
			<input>
				<port id="0">
					<dim>1</dim>
					<dim>256</dim>
					<dim>1</dim>
					<dim>1</dim>
				</port>
				<port id="1">
					<dim>60</dim>
					<dim>256</dim>
					<dim>1</dim>
					<dim>1</dim>
				</port>
			</input>
			<output>
				<port id="2" precision="FP16">
					<dim>1</dim>
					<dim>60</dim>
					<dim>1</dim>
					<dim>1</dim>
				</port>
			</output>
		</layer>
		<layer id="269" name="landmarks_fc_reye_x_new/Dims4893/copy_const544_const" type="Const" version="opset1">
			<data element_type="f16" offset="1827870" shape="1,60,1,1" size="120"/>
			<output>
				<port id="1" precision="FP16">
					<dim>1</dim>
					<dim>60</dim>
					<dim>1</dim>
					<dim>1</dim>
				</port>
			</output>
		</layer>
		<layer id="270" name="landmarks_fc_reye_x_new" type="Add" version="opset1">
			<input>
				<port id="0">
					<dim>1</dim>
					<dim>60</dim>
					<dim>1</dim>
					<dim>1</dim>
				</port>
				<port id="1">
					<dim>1</dim>
					<dim>60</dim>
					<dim>1</dim>
					<dim>1</dim>
				</port>
			</input>
			<output>
				<port id="2" precision="FP16">
					<dim>1</dim>
					<dim>60</dim>
					<dim>1</dim>
					<dim>1</dim>
				</port>
			</output>
		</layer>
		<layer id="271" name="softmax_landmarks_reye_x" type="SoftMax" version="opset1">
			<data axis="1"/>
			<input>
				<port id="0">
					<dim>1</dim>
					<dim>60</dim>
					<dim>1</dim>
					<dim>1</dim>
				</port>
			</input>
			<output>
				<port id="1" precision="FP16">
					<dim>1</dim>
					<dim>60</dim>
					<dim>1</dim>
					<dim>1</dim>
				</port>
			</output>
		</layer>
		<layer id="272" name="45314535_const" type="Const" version="opset1">
			<data element_type="f16" offset="448" shape="" size="2"/>
			<output>
				<port id="1" precision="FP16"/>
			</output>
		</layer>
		<layer id="273" name="45324536_const" type="Const" version="opset1">
			<data element_type="f16" offset="1827990" shape="" size="2"/>
			<output>
				<port id="1" precision="FP16"/>
			</output>
		</layer>
		<layer id="274" name="45334537_const" type="Const" version="opset1">
			<data element_type="f16" offset="448" shape="" size="2"/>
			<output>
				<port id="1" precision="FP16"/>
			</output>
		</layer>
		<layer id="275" name="45344538_const" type="Const" version="opset1">
			<data element_type="f16" offset="1827990" shape="" size="2"/>
			<output>
				<port id="1" precision="FP16"/>
			</output>
		</layer>
		<layer id="276" name="raw_predicts/fq_input_4" type="FakeQuantize" version="opset1">
			<data levels="256"/>
			<input>
				<port id="0">
					<dim>1</dim>
					<dim>60</dim>
					<dim>1</dim>
					<dim>1</dim>
				</port>
				<port id="1"/>
				<port id="2"/>
				<port id="3"/>
				<port id="4"/>
			</input>
			<output>
				<port id="5" precision="FP16">
					<dim>1</dim>
					<dim>60</dim>
					<dim>1</dim>
					<dim>1</dim>
				</port>
			</output>
		</layer>
		<layer id="277" name="landmarks_fc_reye_y_new/WithoutBiases/fq_weights_1/Convert_to_float/Cast_09537_const" type="Const" version="opset1">
			<data element_type="u8" offset="1827992" shape="60,256,1,1" size="15360"/>
			<output>
				<port id="1" precision="U8">
					<dim>60</dim>
					<dim>256</dim>
					<dim>1</dim>
					<dim>1</dim>
				</port>
			</output>
		</layer>
		<layer id="278" name="landmarks_fc_reye_y_new/WithoutBiases/fq_weights_1/Convert_to_float" type="Convert" version="opset1">
			<data destination_type="f16"/>
			<input>
				<port id="0">
					<dim>60</dim>
					<dim>256</dim>
					<dim>1</dim>
					<dim>1</dim>
				</port>
			</input>
			<output>
				<port id="1" precision="FP16">
					<dim>60</dim>
					<dim>256</dim>
					<dim>1</dim>
					<dim>1</dim>
				</port>
			</output>
		</layer>
		<layer id="279" name="landmarks_fc_reye_y_new/WithoutBiases/fq_weights_1/Copy/out_low7994_const" type="Const" version="opset1">
			<data element_type="f16" offset="448" shape="1" size="2"/>
			<output>
				<port id="1" precision="FP16">
					<dim>1</dim>
				</port>
			</output>
		</layer>
		<layer id="280" name="landmarks_fc_reye_y_new/WithoutBiases/fq_weights_1/Copy/out_high7995_const" type="Const" version="opset1">
			<data element_type="f16" offset="450" shape="1" size="2"/>
			<output>
				<port id="1" precision="FP16">
					<dim>1</dim>
				</port>
			</output>
		</layer>
		<layer id="281" name="16761680_const" type="Const" version="opset1">
			<data element_type="f16" offset="1843352" shape="60,1,1,1" size="120"/>
			<output>
				<port id="1" precision="FP16">
					<dim>60</dim>
					<dim>1</dim>
					<dim>1</dim>
					<dim>1</dim>
				</port>
			</output>
		</layer>
		<layer id="282" name="16771681_const" type="Const" version="opset1">
			<data element_type="f16" offset="1843472" shape="60,1,1,1" size="120"/>
			<output>
				<port id="1" precision="FP16">
					<dim>60</dim>
					<dim>1</dim>
					<dim>1</dim>
					<dim>1</dim>
				</port>
			</output>
		</layer>
		<layer id="283" name="landmarks_fc_reye_y_new/WithoutBiases/fq_weights_1" type="FakeQuantize" version="opset1">
			<data levels="255"/>
			<input>
				<port id="0">
					<dim>60</dim>
					<dim>256</dim>
					<dim>1</dim>
					<dim>1</dim>
				</port>
				<port id="1">
					<dim>1</dim>
				</port>
				<port id="2">
					<dim>1</dim>
				</port>
				<port id="3">
					<dim>60</dim>
					<dim>1</dim>
					<dim>1</dim>
					<dim>1</dim>
				</port>
				<port id="4">
					<dim>60</dim>
					<dim>1</dim>
					<dim>1</dim>
					<dim>1</dim>
				</port>
			</input>
			<output>
				<port id="5" precision="FP16">
					<dim>60</dim>
					<dim>256</dim>
					<dim>1</dim>
					<dim>1</dim>
				</port>
			</output>
		</layer>
		<layer id="284" name="landmarks_fc_reye_y_new/WithoutBiases" type="Convolution" version="opset1">
			<data dilations="1,1" output_padding="0,0" pads_begin="0,0" pads_end="0,0" strides="1,1"/>
			<input>
				<port id="0">
					<dim>1</dim>
					<dim>256</dim>
					<dim>1</dim>
					<dim>1</dim>
				</port>
				<port id="1">
					<dim>60</dim>
					<dim>256</dim>
					<dim>1</dim>
					<dim>1</dim>
				</port>
			</input>
			<output>
				<port id="2" precision="FP16">
					<dim>1</dim>
					<dim>60</dim>
					<dim>1</dim>
					<dim>1</dim>
				</port>
			</output>
		</layer>
		<layer id="285" name="landmarks_fc_reye_y_new/Dims4749/copy_const549_const" type="Const" version="opset1">
			<data element_type="f16" offset="1843592" shape="1,60,1,1" size="120"/>
			<output>
				<port id="1" precision="FP16">
					<dim>1</dim>
					<dim>60</dim>
					<dim>1</dim>
					<dim>1</dim>
				</port>
			</output>
		</layer>
		<layer id="286" name="landmarks_fc_reye_y_new" type="Add" version="opset1">
			<input>
				<port id="0">
					<dim>1</dim>
					<dim>60</dim>
					<dim>1</dim>
					<dim>1</dim>
				</port>
				<port id="1">
					<dim>1</dim>
					<dim>60</dim>
					<dim>1</dim>
					<dim>1</dim>
				</port>
			</input>
			<output>
				<port id="2" precision="FP16">
					<dim>1</dim>
					<dim>60</dim>
					<dim>1</dim>
					<dim>1</dim>
				</port>
			</output>
		</layer>
		<layer id="287" name="softmax_landmarks_reye_y" type="SoftMax" version="opset1">
			<data axis="1"/>
			<input>
				<port id="0">
					<dim>1</dim>
					<dim>60</dim>
					<dim>1</dim>
					<dim>1</dim>
				</port>
			</input>
			<output>
				<port id="1" precision="FP16">
					<dim>1</dim>
					<dim>60</dim>
					<dim>1</dim>
					<dim>1</dim>
				</port>
			</output>
		</layer>
		<layer id="288" name="46414645_const" type="Const" version="opset1">
			<data element_type="f16" offset="448" shape="" size="2"/>
			<output>
				<port id="1" precision="FP16"/>
			</output>
		</layer>
		<layer id="289" name="46424646_const" type="Const" version="opset1">
			<data element_type="f16" offset="1843712" shape="" size="2"/>
			<output>
				<port id="1" precision="FP16"/>
			</output>
		</layer>
		<layer id="290" name="46434647_const" type="Const" version="opset1">
			<data element_type="f16" offset="448" shape="" size="2"/>
			<output>
				<port id="1" precision="FP16"/>
			</output>
		</layer>
		<layer id="291" name="46444648_const" type="Const" version="opset1">
			<data element_type="f16" offset="1843712" shape="" size="2"/>
			<output>
				<port id="1" precision="FP16"/>
			</output>
		</layer>
		<layer id="292" name="raw_predicts/fq_input_5" type="FakeQuantize" version="opset1">
			<data levels="256"/>
			<input>
				<port id="0">
					<dim>1</dim>
					<dim>60</dim>
					<dim>1</dim>
					<dim>1</dim>
				</port>
				<port id="1"/>
				<port id="2"/>
				<port id="3"/>
				<port id="4"/>
			</input>
			<output>
				<port id="5" precision="FP16">
					<dim>1</dim>
					<dim>60</dim>
					<dim>1</dim>
					<dim>1</dim>
				</port>
			</output>
		</layer>
		<layer id="293" name="landmarks_fc_reye_corner_x_new/WithoutBiases/fq_weights_1/Convert_to_float/Cast_09607_const" type="Const" version="opset1">
			<data element_type="u8" offset="1843714" shape="60,256,1,1" size="15360"/>
			<output>
				<port id="1" precision="U8">
					<dim>60</dim>
					<dim>256</dim>
					<dim>1</dim>
					<dim>1</dim>
				</port>
			</output>
		</layer>
		<layer id="294" name="landmarks_fc_reye_corner_x_new/WithoutBiases/fq_weights_1/Convert_to_float" type="Convert" version="opset1">
			<data destination_type="f16"/>
			<input>
				<port id="0">
					<dim>60</dim>
					<dim>256</dim>
					<dim>1</dim>
					<dim>1</dim>
				</port>
			</input>
			<output>
				<port id="1" precision="FP16">
					<dim>60</dim>
					<dim>256</dim>
					<dim>1</dim>
					<dim>1</dim>
				</port>
			</output>
		</layer>
		<layer id="295" name="landmarks_fc_reye_corner_x_new/WithoutBiases/fq_weights_1/Copy/out_low8346_const" type="Const" version="opset1">
			<data element_type="f16" offset="448" shape="1" size="2"/>
			<output>
				<port id="1" precision="FP16">
					<dim>1</dim>
				</port>
			</output>
		</layer>
		<layer id="296" name="landmarks_fc_reye_corner_x_new/WithoutBiases/fq_weights_1/Copy/out_high8347_const" type="Const" version="opset1">
			<data element_type="f16" offset="450" shape="1" size="2"/>
			<output>
				<port id="1" precision="FP16">
					<dim>1</dim>
				</port>
			</output>
		</layer>
		<layer id="297" name="22962300_const" type="Const" version="opset1">
			<data element_type="f16" offset="1859074" shape="60,1,1,1" size="120"/>
			<output>
				<port id="1" precision="FP16">
					<dim>60</dim>
					<dim>1</dim>
					<dim>1</dim>
					<dim>1</dim>
				</port>
			</output>
		</layer>
		<layer id="298" name="22972301_const" type="Const" version="opset1">
			<data element_type="f16" offset="1859194" shape="60,1,1,1" size="120"/>
			<output>
				<port id="1" precision="FP16">
					<dim>60</dim>
					<dim>1</dim>
					<dim>1</dim>
					<dim>1</dim>
				</port>
			</output>
		</layer>
		<layer id="299" name="landmarks_fc_reye_corner_x_new/WithoutBiases/fq_weights_1" type="FakeQuantize" version="opset1">
			<data levels="255"/>
			<input>
				<port id="0">
					<dim>60</dim>
					<dim>256</dim>
					<dim>1</dim>
					<dim>1</dim>
				</port>
				<port id="1">
					<dim>1</dim>
				</port>
				<port id="2">
					<dim>1</dim>
				</port>
				<port id="3">
					<dim>60</dim>
					<dim>1</dim>
					<dim>1</dim>
					<dim>1</dim>
				</port>
				<port id="4">
					<dim>60</dim>
					<dim>1</dim>
					<dim>1</dim>
					<dim>1</dim>
				</port>
			</input>
			<output>
				<port id="5" precision="FP16">
					<dim>60</dim>
					<dim>256</dim>
					<dim>1</dim>
					<dim>1</dim>
				</port>
			</output>
		</layer>
		<layer id="300" name="landmarks_fc_reye_corner_x_new/WithoutBiases" type="Convolution" version="opset1">
			<data dilations="1,1" output_padding="0,0" pads_begin="0,0" pads_end="0,0" strides="1,1"/>
			<input>
				<port id="0">
					<dim>1</dim>
					<dim>256</dim>
					<dim>1</dim>
					<dim>1</dim>
				</port>
				<port id="1">
					<dim>60</dim>
					<dim>256</dim>
					<dim>1</dim>
					<dim>1</dim>
				</port>
			</input>
			<output>
				<port id="2" precision="FP16">
					<dim>1</dim>
					<dim>60</dim>
					<dim>1</dim>
					<dim>1</dim>
				</port>
			</output>
		</layer>
		<layer id="301" name="landmarks_fc_reye_corner_x_new/Dims4815/copy_const554_const" type="Const" version="opset1">
			<data element_type="f16" offset="1859314" shape="1,60,1,1" size="120"/>
			<output>
				<port id="1" precision="FP16">
					<dim>1</dim>
					<dim>60</dim>
					<dim>1</dim>
					<dim>1</dim>
				</port>
			</output>
		</layer>
		<layer id="302" name="landmarks_fc_reye_corner_x_new" type="Add" version="opset1">
			<input>
				<port id="0">
					<dim>1</dim>
					<dim>60</dim>
					<dim>1</dim>
					<dim>1</dim>
				</port>
				<port id="1">
					<dim>1</dim>
					<dim>60</dim>
					<dim>1</dim>
					<dim>1</dim>
				</port>
			</input>
			<output>
				<port id="2" precision="FP16">
					<dim>1</dim>
					<dim>60</dim>
					<dim>1</dim>
					<dim>1</dim>
				</port>
			</output>
		</layer>
		<layer id="303" name="softmax_landmarks_reye_corner_x" type="SoftMax" version="opset1">
			<data axis="1"/>
			<input>
				<port id="0">
					<dim>1</dim>
					<dim>60</dim>
					<dim>1</dim>
					<dim>1</dim>
				</port>
			</input>
			<output>
				<port id="1" precision="FP16">
					<dim>1</dim>
					<dim>60</dim>
					<dim>1</dim>
					<dim>1</dim>
				</port>
			</output>
		</layer>
		<layer id="304" name="47514755_const" type="Const" version="opset1">
			<data element_type="f16" offset="448" shape="" size="2"/>
			<output>
				<port id="1" precision="FP16"/>
			</output>
		</layer>
		<layer id="305" name="47524756_const" type="Const" version="opset1">
			<data element_type="f16" offset="1859434" shape="" size="2"/>
			<output>
				<port id="1" precision="FP16"/>
			</output>
		</layer>
		<layer id="306" name="47534757_const" type="Const" version="opset1">
			<data element_type="f16" offset="448" shape="" size="2"/>
			<output>
				<port id="1" precision="FP16"/>
			</output>
		</layer>
		<layer id="307" name="47544758_const" type="Const" version="opset1">
			<data element_type="f16" offset="1859434" shape="" size="2"/>
			<output>
				<port id="1" precision="FP16"/>
			</output>
		</layer>
		<layer id="308" name="raw_predicts/fq_input_6" type="FakeQuantize" version="opset1">
			<data levels="256"/>
			<input>
				<port id="0">
					<dim>1</dim>
					<dim>60</dim>
					<dim>1</dim>
					<dim>1</dim>
				</port>
				<port id="1"/>
				<port id="2"/>
				<port id="3"/>
				<port id="4"/>
			</input>
			<output>
				<port id="5" precision="FP16">
					<dim>1</dim>
					<dim>60</dim>
					<dim>1</dim>
					<dim>1</dim>
				</port>
			</output>
		</layer>
		<layer id="309" name="landmarks_fc_reye_corner_y_new/WithoutBiases/fq_weights_1/Convert_to_float/Cast_09571_const" type="Const" version="opset1">
			<data element_type="u8" offset="1859436" shape="60,256,1,1" size="15360"/>
			<output>
				<port id="1" precision="U8">
					<dim>60</dim>
					<dim>256</dim>
					<dim>1</dim>
					<dim>1</dim>
				</port>
			</output>
		</layer>
		<layer id="310" name="landmarks_fc_reye_corner_y_new/WithoutBiases/fq_weights_1/Convert_to_float" type="Convert" version="opset1">
			<data destination_type="f16"/>
			<input>
				<port id="0">
					<dim>60</dim>
					<dim>256</dim>
					<dim>1</dim>
					<dim>1</dim>
				</port>
			</input>
			<output>
				<port id="1" precision="FP16">
					<dim>60</dim>
					<dim>256</dim>
					<dim>1</dim>
					<dim>1</dim>
				</port>
			</output>
		</layer>
		<layer id="311" name="landmarks_fc_reye_corner_y_new/WithoutBiases/fq_weights_1/Copy/out_low8186_const" type="Const" version="opset1">
			<data element_type="f16" offset="448" shape="1" size="2"/>
			<output>
				<port id="1" precision="FP16">
					<dim>1</dim>
				</port>
			</output>
		</layer>
		<layer id="312" name="landmarks_fc_reye_corner_y_new/WithoutBiases/fq_weights_1/Copy/out_high8187_const" type="Const" version="opset1">
			<data element_type="f16" offset="450" shape="1" size="2"/>
			<output>
				<port id="1" precision="FP16">
					<dim>1</dim>
				</port>
			</output>
		</layer>
		<layer id="313" name="20562060_const" type="Const" version="opset1">
			<data element_type="f16" offset="1874796" shape="60,1,1,1" size="120"/>
			<output>
				<port id="1" precision="FP16">
					<dim>60</dim>
					<dim>1</dim>
					<dim>1</dim>
					<dim>1</dim>
				</port>
			</output>
		</layer>
		<layer id="314" name="20572061_const" type="Const" version="opset1">
			<data element_type="f16" offset="1874916" shape="60,1,1,1" size="120"/>
			<output>
				<port id="1" precision="FP16">
					<dim>60</dim>
					<dim>1</dim>
					<dim>1</dim>
					<dim>1</dim>
				</port>
			</output>
		</layer>
		<layer id="315" name="landmarks_fc_reye_corner_y_new/WithoutBiases/fq_weights_1" type="FakeQuantize" version="opset1">
			<data levels="255"/>
			<input>
				<port id="0">
					<dim>60</dim>
					<dim>256</dim>
					<dim>1</dim>
					<dim>1</dim>
				</port>
				<port id="1">
					<dim>1</dim>
				</port>
				<port id="2">
					<dim>1</dim>
				</port>
				<port id="3">
					<dim>60</dim>
					<dim>1</dim>
					<dim>1</dim>
					<dim>1</dim>
				</port>
				<port id="4">
					<dim>60</dim>
					<dim>1</dim>
					<dim>1</dim>
					<dim>1</dim>
				</port>
			</input>
			<output>
				<port id="5" precision="FP16">
					<dim>60</dim>
					<dim>256</dim>
					<dim>1</dim>
					<dim>1</dim>
				</port>
			</output>
		</layer>
		<layer id="316" name="landmarks_fc_reye_corner_y_new/WithoutBiases" type="Convolution" version="opset1">
			<data dilations="1,1" output_padding="0,0" pads_begin="0,0" pads_end="0,0" strides="1,1"/>
			<input>
				<port id="0">
					<dim>1</dim>
					<dim>256</dim>
					<dim>1</dim>
					<dim>1</dim>
				</port>
				<port id="1">
					<dim>60</dim>
					<dim>256</dim>
					<dim>1</dim>
					<dim>1</dim>
				</port>
			</input>
			<output>
				<port id="2" precision="FP16">
					<dim>1</dim>
					<dim>60</dim>
					<dim>1</dim>
					<dim>1</dim>
				</port>
			</output>
		</layer>
		<layer id="317" name="landmarks_fc_reye_corner_y_new/Dims4959/copy_const559_const" type="Const" version="opset1">
			<data element_type="f16" offset="1875036" shape="1,60,1,1" size="120"/>
			<output>
				<port id="1" precision="FP16">
					<dim>1</dim>
					<dim>60</dim>
					<dim>1</dim>
					<dim>1</dim>
				</port>
			</output>
		</layer>
		<layer id="318" name="landmarks_fc_reye_corner_y_new" type="Add" version="opset1">
			<input>
				<port id="0">
					<dim>1</dim>
					<dim>60</dim>
					<dim>1</dim>
					<dim>1</dim>
				</port>
				<port id="1">
					<dim>1</dim>
					<dim>60</dim>
					<dim>1</dim>
					<dim>1</dim>
				</port>
			</input>
			<output>
				<port id="2" precision="FP16">
					<dim>1</dim>
					<dim>60</dim>
					<dim>1</dim>
					<dim>1</dim>
				</port>
			</output>
		</layer>
		<layer id="319" name="softmax_landmarks_reye_corner_y" type="SoftMax" version="opset1">
			<data axis="1"/>
			<input>
				<port id="0">
					<dim>1</dim>
					<dim>60</dim>
					<dim>1</dim>
					<dim>1</dim>
				</port>
			</input>
			<output>
				<port id="1" precision="FP16">
					<dim>1</dim>
					<dim>60</dim>
					<dim>1</dim>
					<dim>1</dim>
				</port>
			</output>
		</layer>
		<layer id="320" name="48614865_const" type="Const" version="opset1">
			<data element_type="f16" offset="448" shape="" size="2"/>
			<output>
				<port id="1" precision="FP16"/>
			</output>
		</layer>
		<layer id="321" name="48624866_const" type="Const" version="opset1">
			<data element_type="f16" offset="1875156" shape="" size="2"/>
			<output>
				<port id="1" precision="FP16"/>
			</output>
		</layer>
		<layer id="322" name="48634867_const" type="Const" version="opset1">
			<data element_type="f16" offset="448" shape="" size="2"/>
			<output>
				<port id="1" precision="FP16"/>
			</output>
		</layer>
		<layer id="323" name="48644868_const" type="Const" version="opset1">
			<data element_type="f16" offset="1875156" shape="" size="2"/>
			<output>
				<port id="1" precision="FP16"/>
			</output>
		</layer>
		<layer id="324" name="raw_predicts/fq_input_7" type="FakeQuantize" version="opset1">
			<data levels="256"/>
			<input>
				<port id="0">
					<dim>1</dim>
					<dim>60</dim>
					<dim>1</dim>
					<dim>1</dim>
				</port>
				<port id="1"/>
				<port id="2"/>
				<port id="3"/>
				<port id="4"/>
			</input>
			<output>
				<port id="5" precision="FP16">
					<dim>1</dim>
					<dim>60</dim>
					<dim>1</dim>
					<dim>1</dim>
				</port>
			</output>
		</layer>
		<layer id="325" name="landmarks_conv_lnose/WithoutBiases/fq_weights_1/Convert_to_float/Cast_09589_const" type="Const" version="opset1">
			<data element_type="u8" offset="1875158" shape="256,512,1,1" size="131072"/>
			<output>
				<port id="1" precision="U8">
					<dim>256</dim>
					<dim>512</dim>
					<dim>1</dim>
					<dim>1</dim>
				</port>
			</output>
		</layer>
		<layer id="326" name="landmarks_conv_lnose/WithoutBiases/fq_weights_1/Convert_to_float" type="Convert" version="opset1">
			<data destination_type="f16"/>
			<input>
				<port id="0">
					<dim>256</dim>
					<dim>512</dim>
					<dim>1</dim>
					<dim>1</dim>
				</port>
			</input>
			<output>
				<port id="1" precision="FP16">
					<dim>256</dim>
					<dim>512</dim>
					<dim>1</dim>
					<dim>1</dim>
				</port>
			</output>
		</layer>
		<layer id="327" name="landmarks_conv_lnose/WithoutBiases/fq_weights_1/Copy/out_low8034_const" type="Const" version="opset1">
			<data element_type="f16" offset="448" shape="1" size="2"/>
			<output>
				<port id="1" precision="FP16">
					<dim>1</dim>
				</port>
			</output>
		</layer>
		<layer id="328" name="landmarks_conv_lnose/WithoutBiases/fq_weights_1/Copy/out_high8035_const" type="Const" version="opset1">
			<data element_type="f16" offset="450" shape="1" size="2"/>
			<output>
				<port id="1" precision="FP16">
					<dim>1</dim>
				</port>
			</output>
		</layer>
		<layer id="329" name="15761580_const" type="Const" version="opset1">
			<data element_type="f16" offset="2006230" shape="256,1,1,1" size="512"/>
			<output>
				<port id="1" precision="FP16">
					<dim>256</dim>
					<dim>1</dim>
					<dim>1</dim>
					<dim>1</dim>
				</port>
			</output>
		</layer>
		<layer id="330" name="15771581_const" type="Const" version="opset1">
			<data element_type="f16" offset="2006742" shape="256,1,1,1" size="512"/>
			<output>
				<port id="1" precision="FP16">
					<dim>256</dim>
					<dim>1</dim>
					<dim>1</dim>
					<dim>1</dim>
				</port>
			</output>
		</layer>
		<layer id="331" name="landmarks_conv_lnose/WithoutBiases/fq_weights_1" type="FakeQuantize" version="opset1">
			<data levels="255"/>
			<input>
				<port id="0">
					<dim>256</dim>
					<dim>512</dim>
					<dim>1</dim>
					<dim>1</dim>
				</port>
				<port id="1">
					<dim>1</dim>
				</port>
				<port id="2">
					<dim>1</dim>
				</port>
				<port id="3">
					<dim>256</dim>
					<dim>1</dim>
					<dim>1</dim>
					<dim>1</dim>
				</port>
				<port id="4">
					<dim>256</dim>
					<dim>1</dim>
					<dim>1</dim>
					<dim>1</dim>
				</port>
			</input>
			<output>
				<port id="5" precision="FP16">
					<dim>256</dim>
					<dim>512</dim>
					<dim>1</dim>
					<dim>1</dim>
				</port>
			</output>
		</layer>
		<layer id="332" name="landmarks_conv_lnose/WithoutBiases" type="Convolution" version="opset1">
			<data dilations="1,1" output_padding="0,0" pads_begin="0,0" pads_end="0,0" strides="1,1"/>
			<input>
				<port id="0">
					<dim>1</dim>
					<dim>512</dim>
					<dim>1</dim>
					<dim>1</dim>
				</port>
				<port id="1">
					<dim>256</dim>
					<dim>512</dim>
					<dim>1</dim>
					<dim>1</dim>
				</port>
			</input>
			<output>
				<port id="2" precision="FP16">
					<dim>1</dim>
					<dim>256</dim>
					<dim>1</dim>
					<dim>1</dim>
				</port>
			</output>
		</layer>
		<layer id="333" name="data_add_78257830/copy_const564_const" type="Const" version="opset1">
			<data element_type="f16" offset="2007254" shape="1,256,1,1" size="512"/>
			<output>
				<port id="1" precision="FP16">
					<dim>1</dim>
					<dim>256</dim>
					<dim>1</dim>
					<dim>1</dim>
				</port>
			</output>
		</layer>
		<layer id="334" name="landmarks_conv_lnose/Fused_Add_" type="Add" version="opset1">
			<input>
				<port id="0">
					<dim>1</dim>
					<dim>256</dim>
					<dim>1</dim>
					<dim>1</dim>
				</port>
				<port id="1">
					<dim>1</dim>
					<dim>256</dim>
					<dim>1</dim>
					<dim>1</dim>
				</port>
			</input>
			<output>
				<port id="2" precision="FP16">
					<dim>1</dim>
					<dim>256</dim>
					<dim>1</dim>
					<dim>1</dim>
				</port>
			</output>
		</layer>
		<layer id="335" name="relu_lnose" type="ReLU" version="opset1">
			<input>
				<port id="0">
					<dim>1</dim>
					<dim>256</dim>
					<dim>1</dim>
					<dim>1</dim>
				</port>
			</input>
			<output>
				<port id="1" precision="FP16">
					<dim>1</dim>
					<dim>256</dim>
					<dim>1</dim>
					<dim>1</dim>
				</port>
			</output>
		</layer>
		<layer id="336" name="18241828_const" type="Const" version="opset1">
			<data element_type="f16" offset="448" shape="" size="2"/>
			<output>
				<port id="1" precision="FP16"/>
			</output>
		</layer>
		<layer id="337" name="18251829_const" type="Const" version="opset1">
			<data element_type="f16" offset="2007766" shape="" size="2"/>
			<output>
				<port id="1" precision="FP16"/>
			</output>
		</layer>
		<layer id="338" name="18261830_const" type="Const" version="opset1">
			<data element_type="f16" offset="448" shape="" size="2"/>
			<output>
				<port id="1" precision="FP16"/>
			</output>
		</layer>
		<layer id="339" name="18271831_const" type="Const" version="opset1">
			<data element_type="f16" offset="2007766" shape="" size="2"/>
			<output>
				<port id="1" precision="FP16"/>
			</output>
		</layer>
		<layer id="340" name="landmarks_fc_lnose_x_new/WithoutBiases/fq_input_0" type="FakeQuantize" version="opset1">
			<data levels="256"/>
			<input>
				<port id="0">
					<dim>1</dim>
					<dim>256</dim>
					<dim>1</dim>
					<dim>1</dim>
				</port>
				<port id="1"/>
				<port id="2"/>
				<port id="3"/>
				<port id="4"/>
			</input>
			<output>
				<port id="5" precision="FP16">
					<dim>1</dim>
					<dim>256</dim>
					<dim>1</dim>
					<dim>1</dim>
				</port>
			</output>
		</layer>
		<layer id="341" name="landmarks_fc_nose_bottom_x_new/WithoutBiases/fq_weights_1/Convert_to_float/Cast_09673_const" type="Const" version="opset1">
			<data element_type="u8" offset="2007768" shape="60,256,1,1" size="15360"/>
			<output>
				<port id="1" precision="U8">
					<dim>60</dim>
					<dim>256</dim>
					<dim>1</dim>
					<dim>1</dim>
				</port>
			</output>
		</layer>
		<layer id="342" name="landmarks_fc_nose_bottom_x_new/WithoutBiases/fq_weights_1/Convert_to_float" type="Convert" version="opset1">
			<data destination_type="f16"/>
			<input>
				<port id="0">
					<dim>60</dim>
					<dim>256</dim>
					<dim>1</dim>
					<dim>1</dim>
				</port>
			</input>
			<output>
				<port id="1" precision="FP16">
					<dim>60</dim>
					<dim>256</dim>
					<dim>1</dim>
					<dim>1</dim>
				</port>
			</output>
		</layer>
		<layer id="343" name="landmarks_fc_nose_bottom_x_new/WithoutBiases/fq_weights_1/Copy/out_low8082_const" type="Const" version="opset1">
			<data element_type="f16" offset="448" shape="1" size="2"/>
			<output>
				<port id="1" precision="FP16">
					<dim>1</dim>
				</port>
			</output>
		</layer>
		<layer id="344" name="landmarks_fc_nose_bottom_x_new/WithoutBiases/fq_weights_1/Copy/out_high8083_const" type="Const" version="opset1">
			<data element_type="f16" offset="450" shape="1" size="2"/>
			<output>
				<port id="1" precision="FP16">
					<dim>1</dim>
				</port>
			</output>
		</layer>
		<layer id="345" name="23362340_const" type="Const" version="opset1">
			<data element_type="f16" offset="2023128" shape="60,1,1,1" size="120"/>
			<output>
				<port id="1" precision="FP16">
					<dim>60</dim>
					<dim>1</dim>
					<dim>1</dim>
					<dim>1</dim>
				</port>
			</output>
		</layer>
		<layer id="346" name="23372341_const" type="Const" version="opset1">
			<data element_type="f16" offset="2023248" shape="60,1,1,1" size="120"/>
			<output>
				<port id="1" precision="FP16">
					<dim>60</dim>
					<dim>1</dim>
					<dim>1</dim>
					<dim>1</dim>
				</port>
			</output>
		</layer>
		<layer id="347" name="landmarks_fc_nose_bottom_x_new/WithoutBiases/fq_weights_1" type="FakeQuantize" version="opset1">
			<data levels="255"/>
			<input>
				<port id="0">
					<dim>60</dim>
					<dim>256</dim>
					<dim>1</dim>
					<dim>1</dim>
				</port>
				<port id="1">
					<dim>1</dim>
				</port>
				<port id="2">
					<dim>1</dim>
				</port>
				<port id="3">
					<dim>60</dim>
					<dim>1</dim>
					<dim>1</dim>
					<dim>1</dim>
				</port>
				<port id="4">
					<dim>60</dim>
					<dim>1</dim>
					<dim>1</dim>
					<dim>1</dim>
				</port>
			</input>
			<output>
				<port id="5" precision="FP16">
					<dim>60</dim>
					<dim>256</dim>
					<dim>1</dim>
					<dim>1</dim>
				</port>
			</output>
		</layer>
		<layer id="348" name="landmarks_fc_nose_bottom_x_new/WithoutBiases" type="Convolution" version="opset1">
			<data dilations="1,1" output_padding="0,0" pads_begin="0,0" pads_end="0,0" strides="1,1"/>
			<input>
				<port id="0">
					<dim>1</dim>
					<dim>256</dim>
					<dim>1</dim>
					<dim>1</dim>
				</port>
				<port id="1">
					<dim>60</dim>
					<dim>256</dim>
					<dim>1</dim>
					<dim>1</dim>
				</port>
			</input>
			<output>
				<port id="2" precision="FP16">
					<dim>1</dim>
					<dim>60</dim>
					<dim>1</dim>
					<dim>1</dim>
				</port>
			</output>
		</layer>
		<layer id="349" name="landmarks_fc_nose_bottom_x_new/Dims4683/copy_const569_const" type="Const" version="opset1">
			<data element_type="f16" offset="2023368" shape="1,60,1,1" size="120"/>
			<output>
				<port id="1" precision="FP16">
					<dim>1</dim>
					<dim>60</dim>
					<dim>1</dim>
					<dim>1</dim>
				</port>
			</output>
		</layer>
		<layer id="350" name="landmarks_fc_nose_bottom_x_new" type="Add" version="opset1">
			<input>
				<port id="0">
					<dim>1</dim>
					<dim>60</dim>
					<dim>1</dim>
					<dim>1</dim>
				</port>
				<port id="1">
					<dim>1</dim>
					<dim>60</dim>
					<dim>1</dim>
					<dim>1</dim>
				</port>
			</input>
			<output>
				<port id="2" precision="FP16">
					<dim>1</dim>
					<dim>60</dim>
					<dim>1</dim>
					<dim>1</dim>
				</port>
			</output>
		</layer>
		<layer id="351" name="softmax_landmarks_nose_bottom_x" type="SoftMax" version="opset1">
			<data axis="1"/>
			<input>
				<port id="0">
					<dim>1</dim>
					<dim>60</dim>
					<dim>1</dim>
					<dim>1</dim>
				</port>
			</input>
			<output>
				<port id="1" precision="FP16">
					<dim>1</dim>
					<dim>60</dim>
					<dim>1</dim>
					<dim>1</dim>
				</port>
			</output>
		</layer>
		<layer id="352" name="48714875_const" type="Const" version="opset1">
			<data element_type="f16" offset="448" shape="" size="2"/>
			<output>
				<port id="1" precision="FP16"/>
			</output>
		</layer>
		<layer id="353" name="48724876_const" type="Const" version="opset1">
			<data element_type="f16" offset="2023488" shape="" size="2"/>
			<output>
				<port id="1" precision="FP16"/>
			</output>
		</layer>
		<layer id="354" name="48734877_const" type="Const" version="opset1">
			<data element_type="f16" offset="448" shape="" size="2"/>
			<output>
				<port id="1" precision="FP16"/>
			</output>
		</layer>
		<layer id="355" name="48744878_const" type="Const" version="opset1">
			<data element_type="f16" offset="2023488" shape="" size="2"/>
			<output>
				<port id="1" precision="FP16"/>
			</output>
		</layer>
		<layer id="356" name="raw_predicts/fq_input_8" type="FakeQuantize" version="opset1">
			<data levels="256"/>
			<input>
				<port id="0">
					<dim>1</dim>
					<dim>60</dim>
					<dim>1</dim>
					<dim>1</dim>
				</port>
				<port id="1"/>
				<port id="2"/>
				<port id="3"/>
				<port id="4"/>
			</input>
			<output>
				<port id="5" precision="FP16">
					<dim>1</dim>
					<dim>60</dim>
					<dim>1</dim>
					<dim>1</dim>
				</port>
			</output>
		</layer>
		<layer id="357" name="landmarks_fc_nose_bottom_y_new/WithoutBiases/fq_weights_1/Convert_to_float/Cast_09689_const" type="Const" version="opset1">
			<data element_type="u8" offset="2023490" shape="60,256,1,1" size="15360"/>
			<output>
				<port id="1" precision="U8">
					<dim>60</dim>
					<dim>256</dim>
					<dim>1</dim>
					<dim>1</dim>
				</port>
			</output>
		</layer>
		<layer id="358" name="landmarks_fc_nose_bottom_y_new/WithoutBiases/fq_weights_1/Convert_to_float" type="Convert" version="opset1">
			<data destination_type="f16"/>
			<input>
				<port id="0">
					<dim>60</dim>
					<dim>256</dim>
					<dim>1</dim>
					<dim>1</dim>
				</port>
			</input>
			<output>
				<port id="1" precision="FP16">
					<dim>60</dim>
					<dim>256</dim>
					<dim>1</dim>
					<dim>1</dim>
				</port>
			</output>
		</layer>
		<layer id="359" name="landmarks_fc_nose_bottom_y_new/WithoutBiases/fq_weights_1/Copy/out_low8562_const" type="Const" version="opset1">
			<data element_type="f16" offset="448" shape="1" size="2"/>
			<output>
				<port id="1" precision="FP16">
					<dim>1</dim>
				</port>
			</output>
		</layer>
		<layer id="360" name="landmarks_fc_nose_bottom_y_new/WithoutBiases/fq_weights_1/Copy/out_high8563_const" type="Const" version="opset1">
			<data element_type="f16" offset="450" shape="1" size="2"/>
			<output>
				<port id="1" precision="FP16">
					<dim>1</dim>
				</port>
			</output>
		</layer>
		<layer id="361" name="16561660_const" type="Const" version="opset1">
			<data element_type="f16" offset="2038850" shape="60,1,1,1" size="120"/>
			<output>
				<port id="1" precision="FP16">
					<dim>60</dim>
					<dim>1</dim>
					<dim>1</dim>
					<dim>1</dim>
				</port>
			</output>
		</layer>
		<layer id="362" name="16571661_const" type="Const" version="opset1">
			<data element_type="f16" offset="2038970" shape="60,1,1,1" size="120"/>
			<output>
				<port id="1" precision="FP16">
					<dim>60</dim>
					<dim>1</dim>
					<dim>1</dim>
					<dim>1</dim>
				</port>
			</output>
		</layer>
		<layer id="363" name="landmarks_fc_nose_bottom_y_new/WithoutBiases/fq_weights_1" type="FakeQuantize" version="opset1">
			<data levels="255"/>
			<input>
				<port id="0">
					<dim>60</dim>
					<dim>256</dim>
					<dim>1</dim>
					<dim>1</dim>
				</port>
				<port id="1">
					<dim>1</dim>
				</port>
				<port id="2">
					<dim>1</dim>
				</port>
				<port id="3">
					<dim>60</dim>
					<dim>1</dim>
					<dim>1</dim>
					<dim>1</dim>
				</port>
				<port id="4">
					<dim>60</dim>
					<dim>1</dim>
					<dim>1</dim>
					<dim>1</dim>
				</port>
			</input>
			<output>
				<port id="5" precision="FP16">
					<dim>60</dim>
					<dim>256</dim>
					<dim>1</dim>
					<dim>1</dim>
				</port>
			</output>
		</layer>
		<layer id="364" name="landmarks_fc_nose_bottom_y_new/WithoutBiases" type="Convolution" version="opset1">
			<data dilations="1,1" output_padding="0,0" pads_begin="0,0" pads_end="0,0" strides="1,1"/>
			<input>
				<port id="0">
					<dim>1</dim>
					<dim>256</dim>
					<dim>1</dim>
					<dim>1</dim>
				</port>
				<port id="1">
					<dim>60</dim>
					<dim>256</dim>
					<dim>1</dim>
					<dim>1</dim>
				</port>
			</input>
			<output>
				<port id="2" precision="FP16">
					<dim>1</dim>
					<dim>60</dim>
					<dim>1</dim>
					<dim>1</dim>
				</port>
			</output>
		</layer>
		<layer id="365" name="landmarks_fc_nose_bottom_y_new/Dims4773/copy_const574_const" type="Const" version="opset1">
			<data element_type="f16" offset="2039090" shape="1,60,1,1" size="120"/>
			<output>
				<port id="1" precision="FP16">
					<dim>1</dim>
					<dim>60</dim>
					<dim>1</dim>
					<dim>1</dim>
				</port>
			</output>
		</layer>
		<layer id="366" name="landmarks_fc_nose_bottom_y_new" type="Add" version="opset1">
			<input>
				<port id="0">
					<dim>1</dim>
					<dim>60</dim>
					<dim>1</dim>
					<dim>1</dim>
				</port>
				<port id="1">
					<dim>1</dim>
					<dim>60</dim>
					<dim>1</dim>
					<dim>1</dim>
				</port>
			</input>
			<output>
				<port id="2" precision="FP16">
					<dim>1</dim>
					<dim>60</dim>
					<dim>1</dim>
					<dim>1</dim>
				</port>
			</output>
		</layer>
		<layer id="367" name="softmax_landmarks_nose_bottom_y" type="SoftMax" version="opset1">
			<data axis="1"/>
			<input>
				<port id="0">
					<dim>1</dim>
					<dim>60</dim>
					<dim>1</dim>
					<dim>1</dim>
				</port>
			</input>
			<output>
				<port id="1" precision="FP16">
					<dim>1</dim>
					<dim>60</dim>
					<dim>1</dim>
					<dim>1</dim>
				</port>
			</output>
		</layer>
		<layer id="368" name="48814885_const" type="Const" version="opset1">
			<data element_type="f16" offset="448" shape="" size="2"/>
			<output>
				<port id="1" precision="FP16"/>
			</output>
		</layer>
		<layer id="369" name="48824886_const" type="Const" version="opset1">
			<data element_type="f16" offset="2039210" shape="" size="2"/>
			<output>
				<port id="1" precision="FP16"/>
			</output>
		</layer>
		<layer id="370" name="48834887_const" type="Const" version="opset1">
			<data element_type="f16" offset="448" shape="" size="2"/>
			<output>
				<port id="1" precision="FP16"/>
			</output>
		</layer>
		<layer id="371" name="48844888_const" type="Const" version="opset1">
			<data element_type="f16" offset="2039210" shape="" size="2"/>
			<output>
				<port id="1" precision="FP16"/>
			</output>
		</layer>
		<layer id="372" name="raw_predicts/fq_input_9" type="FakeQuantize" version="opset1">
			<data levels="256"/>
			<input>
				<port id="0">
					<dim>1</dim>
					<dim>60</dim>
					<dim>1</dim>
					<dim>1</dim>
				</port>
				<port id="1"/>
				<port id="2"/>
				<port id="3"/>
				<port id="4"/>
			</input>
			<output>
				<port id="5" precision="FP16">
					<dim>1</dim>
					<dim>60</dim>
					<dim>1</dim>
					<dim>1</dim>
				</port>
			</output>
		</layer>
		<layer id="373" name="landmarks_fc_nose_tip_x_new/WithoutBiases/fq_weights_1/Convert_to_float/Cast_09691_const" type="Const" version="opset1">
			<data element_type="u8" offset="2039212" shape="60,256,1,1" size="15360"/>
			<output>
				<port id="1" precision="U8">
					<dim>60</dim>
					<dim>256</dim>
					<dim>1</dim>
					<dim>1</dim>
				</port>
			</output>
		</layer>
		<layer id="374" name="landmarks_fc_nose_tip_x_new/WithoutBiases/fq_weights_1/Convert_to_float" type="Convert" version="opset1">
			<data destination_type="f16"/>
			<input>
				<port id="0">
					<dim>60</dim>
					<dim>256</dim>
					<dim>1</dim>
					<dim>1</dim>
				</port>
			</input>
			<output>
				<port id="1" precision="FP16">
					<dim>60</dim>
					<dim>256</dim>
					<dim>1</dim>
					<dim>1</dim>
				</port>
			</output>
		</layer>
		<layer id="375" name="landmarks_fc_nose_tip_x_new/WithoutBiases/fq_weights_1/Copy/out_low8106_const" type="Const" version="opset1">
			<data element_type="f16" offset="448" shape="1" size="2"/>
			<output>
				<port id="1" precision="FP16">
					<dim>1</dim>
				</port>
			</output>
		</layer>
		<layer id="376" name="landmarks_fc_nose_tip_x_new/WithoutBiases/fq_weights_1/Copy/out_high8107_const" type="Const" version="opset1">
			<data element_type="f16" offset="450" shape="1" size="2"/>
			<output>
				<port id="1" precision="FP16">
					<dim>1</dim>
				</port>
			</output>
		</layer>
		<layer id="377" name="28362840_const" type="Const" version="opset1">
			<data element_type="f16" offset="2054572" shape="60,1,1,1" size="120"/>
			<output>
				<port id="1" precision="FP16">
					<dim>60</dim>
					<dim>1</dim>
					<dim>1</dim>
					<dim>1</dim>
				</port>
			</output>
		</layer>
		<layer id="378" name="28372841_const" type="Const" version="opset1">
			<data element_type="f16" offset="2054692" shape="60,1,1,1" size="120"/>
			<output>
				<port id="1" precision="FP16">
					<dim>60</dim>
					<dim>1</dim>
					<dim>1</dim>
					<dim>1</dim>
				</port>
			</output>
		</layer>
		<layer id="379" name="landmarks_fc_nose_tip_x_new/WithoutBiases/fq_weights_1" type="FakeQuantize" version="opset1">
			<data levels="255"/>
			<input>
				<port id="0">
					<dim>60</dim>
					<dim>256</dim>
					<dim>1</dim>
					<dim>1</dim>
				</port>
				<port id="1">
					<dim>1</dim>
				</port>
				<port id="2">
					<dim>1</dim>
				</port>
				<port id="3">
					<dim>60</dim>
					<dim>1</dim>
					<dim>1</dim>
					<dim>1</dim>
				</port>
				<port id="4">
					<dim>60</dim>
					<dim>1</dim>
					<dim>1</dim>
					<dim>1</dim>
				</port>
			</input>
			<output>
				<port id="5" precision="FP16">
					<dim>60</dim>
					<dim>256</dim>
					<dim>1</dim>
					<dim>1</dim>
				</port>
			</output>
		</layer>
		<layer id="380" name="landmarks_fc_nose_tip_x_new/WithoutBiases" type="Convolution" version="opset1">
			<data dilations="1,1" output_padding="0,0" pads_begin="0,0" pads_end="0,0" strides="1,1"/>
			<input>
				<port id="0">
					<dim>1</dim>
					<dim>256</dim>
					<dim>1</dim>
					<dim>1</dim>
				</port>
				<port id="1">
					<dim>60</dim>
					<dim>256</dim>
					<dim>1</dim>
					<dim>1</dim>
				</port>
			</input>
			<output>
				<port id="2" precision="FP16">
					<dim>1</dim>
					<dim>60</dim>
					<dim>1</dim>
					<dim>1</dim>
				</port>
			</output>
		</layer>
		<layer id="381" name="landmarks_fc_nose_tip_x_new/Dims4719/copy_const579_const" type="Const" version="opset1">
			<data element_type="f16" offset="2054812" shape="1,60,1,1" size="120"/>
			<output>
				<port id="1" precision="FP16">
					<dim>1</dim>
					<dim>60</dim>
					<dim>1</dim>
					<dim>1</dim>
				</port>
			</output>
		</layer>
		<layer id="382" name="landmarks_fc_nose_tip_x_new" type="Add" version="opset1">
			<input>
				<port id="0">
					<dim>1</dim>
					<dim>60</dim>
					<dim>1</dim>
					<dim>1</dim>
				</port>
				<port id="1">
					<dim>1</dim>
					<dim>60</dim>
					<dim>1</dim>
					<dim>1</dim>
				</port>
			</input>
			<output>
				<port id="2" precision="FP16">
					<dim>1</dim>
					<dim>60</dim>
					<dim>1</dim>
					<dim>1</dim>
				</port>
			</output>
		</layer>
		<layer id="383" name="softmax_landmarks_nose_tip_x" type="SoftMax" version="opset1">
			<data axis="1"/>
			<input>
				<port id="0">
					<dim>1</dim>
					<dim>60</dim>
					<dim>1</dim>
					<dim>1</dim>
				</port>
			</input>
			<output>
				<port id="1" precision="FP16">
					<dim>1</dim>
					<dim>60</dim>
					<dim>1</dim>
					<dim>1</dim>
				</port>
			</output>
		</layer>
		<layer id="384" name="42114215_const" type="Const" version="opset1">
			<data element_type="f16" offset="448" shape="" size="2"/>
			<output>
				<port id="1" precision="FP16"/>
			</output>
		</layer>
		<layer id="385" name="42124216_const" type="Const" version="opset1">
			<data element_type="f16" offset="2054932" shape="" size="2"/>
			<output>
				<port id="1" precision="FP16"/>
			</output>
		</layer>
		<layer id="386" name="42134217_const" type="Const" version="opset1">
			<data element_type="f16" offset="448" shape="" size="2"/>
			<output>
				<port id="1" precision="FP16"/>
			</output>
		</layer>
		<layer id="387" name="42144218_const" type="Const" version="opset1">
			<data element_type="f16" offset="2054932" shape="" size="2"/>
			<output>
				<port id="1" precision="FP16"/>
			</output>
		</layer>
		<layer id="388" name="raw_predicts/fq_input_10" type="FakeQuantize" version="opset1">
			<data levels="256"/>
			<input>
				<port id="0">
					<dim>1</dim>
					<dim>60</dim>
					<dim>1</dim>
					<dim>1</dim>
				</port>
				<port id="1"/>
				<port id="2"/>
				<port id="3"/>
				<port id="4"/>
			</input>
			<output>
				<port id="5" precision="FP16">
					<dim>1</dim>
					<dim>60</dim>
					<dim>1</dim>
					<dim>1</dim>
				</port>
			</output>
		</layer>
		<layer id="389" name="landmarks_fc_nose_tip_y_new/WithoutBiases/fq_weights_1/Convert_to_float/Cast_09549_const" type="Const" version="opset1">
			<data element_type="u8" offset="2054934" shape="60,256,1,1" size="15360"/>
			<output>
				<port id="1" precision="U8">
					<dim>60</dim>
					<dim>256</dim>
					<dim>1</dim>
					<dim>1</dim>
				</port>
			</output>
		</layer>
		<layer id="390" name="landmarks_fc_nose_tip_y_new/WithoutBiases/fq_weights_1/Convert_to_float" type="Convert" version="opset1">
			<data destination_type="f16"/>
			<input>
				<port id="0">
					<dim>60</dim>
					<dim>256</dim>
					<dim>1</dim>
					<dim>1</dim>
				</port>
			</input>
			<output>
				<port id="1" precision="FP16">
					<dim>60</dim>
					<dim>256</dim>
					<dim>1</dim>
					<dim>1</dim>
				</port>
			</output>
		</layer>
		<layer id="391" name="landmarks_fc_nose_tip_y_new/WithoutBiases/fq_weights_1/Copy/out_low7938_const" type="Const" version="opset1">
			<data element_type="f16" offset="448" shape="1" size="2"/>
			<output>
				<port id="1" precision="FP16">
					<dim>1</dim>
				</port>
			</output>
		</layer>
		<layer id="392" name="landmarks_fc_nose_tip_y_new/WithoutBiases/fq_weights_1/Copy/out_high7939_const" type="Const" version="opset1">
			<data element_type="f16" offset="450" shape="1" size="2"/>
			<output>
				<port id="1" precision="FP16">
					<dim>1</dim>
				</port>
			</output>
		</layer>
		<layer id="393" name="14961500_const" type="Const" version="opset1">
			<data element_type="f16" offset="2070294" shape="60,1,1,1" size="120"/>
			<output>
				<port id="1" precision="FP16">
					<dim>60</dim>
					<dim>1</dim>
					<dim>1</dim>
					<dim>1</dim>
				</port>
			</output>
		</layer>
		<layer id="394" name="14971501_const" type="Const" version="opset1">
			<data element_type="f16" offset="2070414" shape="60,1,1,1" size="120"/>
			<output>
				<port id="1" precision="FP16">
					<dim>60</dim>
					<dim>1</dim>
					<dim>1</dim>
					<dim>1</dim>
				</port>
			</output>
		</layer>
		<layer id="395" name="landmarks_fc_nose_tip_y_new/WithoutBiases/fq_weights_1" type="FakeQuantize" version="opset1">
			<data levels="255"/>
			<input>
				<port id="0">
					<dim>60</dim>
					<dim>256</dim>
					<dim>1</dim>
					<dim>1</dim>
				</port>
				<port id="1">
					<dim>1</dim>
				</port>
				<port id="2">
					<dim>1</dim>
				</port>
				<port id="3">
					<dim>60</dim>
					<dim>1</dim>
					<dim>1</dim>
					<dim>1</dim>
				</port>
				<port id="4">
					<dim>60</dim>
					<dim>1</dim>
					<dim>1</dim>
					<dim>1</dim>
				</port>
			</input>
			<output>
				<port id="5" precision="FP16">
					<dim>60</dim>
					<dim>256</dim>
					<dim>1</dim>
					<dim>1</dim>
				</port>
			</output>
		</layer>
		<layer id="396" name="landmarks_fc_nose_tip_y_new/WithoutBiases" type="Convolution" version="opset1">
			<data dilations="1,1" output_padding="0,0" pads_begin="0,0" pads_end="0,0" strides="1,1"/>
			<input>
				<port id="0">
					<dim>1</dim>
					<dim>256</dim>
					<dim>1</dim>
					<dim>1</dim>
				</port>
				<port id="1">
					<dim>60</dim>
					<dim>256</dim>
					<dim>1</dim>
					<dim>1</dim>
				</port>
			</input>
			<output>
				<port id="2" precision="FP16">
					<dim>1</dim>
					<dim>60</dim>
					<dim>1</dim>
					<dim>1</dim>
				</port>
			</output>
		</layer>
		<layer id="397" name="landmarks_fc_nose_tip_y_new/Dims5019/copy_const584_const" type="Const" version="opset1">
			<data element_type="f16" offset="2070534" shape="1,60,1,1" size="120"/>
			<output>
				<port id="1" precision="FP16">
					<dim>1</dim>
					<dim>60</dim>
					<dim>1</dim>
					<dim>1</dim>
				</port>
			</output>
		</layer>
		<layer id="398" name="landmarks_fc_nose_tip_y_new" type="Add" version="opset1">
			<input>
				<port id="0">
					<dim>1</dim>
					<dim>60</dim>
					<dim>1</dim>
					<dim>1</dim>
				</port>
				<port id="1">
					<dim>1</dim>
					<dim>60</dim>
					<dim>1</dim>
					<dim>1</dim>
				</port>
			</input>
			<output>
				<port id="2" precision="FP16">
					<dim>1</dim>
					<dim>60</dim>
					<dim>1</dim>
					<dim>1</dim>
				</port>
			</output>
		</layer>
		<layer id="399" name="softmax_landmarks_nose_tip_y" type="SoftMax" version="opset1">
			<data axis="1"/>
			<input>
				<port id="0">
					<dim>1</dim>
					<dim>60</dim>
					<dim>1</dim>
					<dim>1</dim>
				</port>
			</input>
			<output>
				<port id="1" precision="FP16">
					<dim>1</dim>
					<dim>60</dim>
					<dim>1</dim>
					<dim>1</dim>
				</port>
			</output>
		</layer>
		<layer id="400" name="42214225_const" type="Const" version="opset1">
			<data element_type="f16" offset="448" shape="" size="2"/>
			<output>
				<port id="1" precision="FP16"/>
			</output>
		</layer>
		<layer id="401" name="42224226_const" type="Const" version="opset1">
			<data element_type="f16" offset="2070654" shape="" size="2"/>
			<output>
				<port id="1" precision="FP16"/>
			</output>
		</layer>
		<layer id="402" name="42234227_const" type="Const" version="opset1">
			<data element_type="f16" offset="448" shape="" size="2"/>
			<output>
				<port id="1" precision="FP16"/>
			</output>
		</layer>
		<layer id="403" name="42244228_const" type="Const" version="opset1">
			<data element_type="f16" offset="2070654" shape="" size="2"/>
			<output>
				<port id="1" precision="FP16"/>
			</output>
		</layer>
		<layer id="404" name="raw_predicts/fq_input_11" type="FakeQuantize" version="opset1">
			<data levels="256"/>
			<input>
				<port id="0">
					<dim>1</dim>
					<dim>60</dim>
					<dim>1</dim>
					<dim>1</dim>
				</port>
				<port id="1"/>
				<port id="2"/>
				<port id="3"/>
				<port id="4"/>
			</input>
			<output>
				<port id="5" precision="FP16">
					<dim>1</dim>
					<dim>60</dim>
					<dim>1</dim>
					<dim>1</dim>
				</port>
			</output>
		</layer>
		<layer id="405" name="landmarks_fc_lnose_x_new/WithoutBiases/fq_weights_1/Convert_to_float/Cast_09605_const" type="Const" version="opset1">
			<data element_type="u8" offset="2070656" shape="60,256,1,1" size="15360"/>
			<output>
				<port id="1" precision="U8">
					<dim>60</dim>
					<dim>256</dim>
					<dim>1</dim>
					<dim>1</dim>
				</port>
			</output>
		</layer>
		<layer id="406" name="landmarks_fc_lnose_x_new/WithoutBiases/fq_weights_1/Convert_to_float" type="Convert" version="opset1">
			<data destination_type="f16"/>
			<input>
				<port id="0">
					<dim>60</dim>
					<dim>256</dim>
					<dim>1</dim>
					<dim>1</dim>
				</port>
			</input>
			<output>
				<port id="1" precision="FP16">
					<dim>60</dim>
					<dim>256</dim>
					<dim>1</dim>
					<dim>1</dim>
				</port>
			</output>
		</layer>
		<layer id="407" name="landmarks_fc_lnose_x_new/WithoutBiases/fq_weights_1/Copy/out_low7970_const" type="Const" version="opset1">
			<data element_type="f16" offset="448" shape="1" size="2"/>
			<output>
				<port id="1" precision="FP16">
					<dim>1</dim>
				</port>
			</output>
		</layer>
		<layer id="408" name="landmarks_fc_lnose_x_new/WithoutBiases/fq_weights_1/Copy/out_high7971_const" type="Const" version="opset1">
			<data element_type="f16" offset="450" shape="1" size="2"/>
			<output>
				<port id="1" precision="FP16">
					<dim>1</dim>
				</port>
			</output>
		</layer>
		<layer id="409" name="18361840_const" type="Const" version="opset1">
			<data element_type="f16" offset="2086016" shape="60,1,1,1" size="120"/>
			<output>
				<port id="1" precision="FP16">
					<dim>60</dim>
					<dim>1</dim>
					<dim>1</dim>
					<dim>1</dim>
				</port>
			</output>
		</layer>
		<layer id="410" name="18371841_const" type="Const" version="opset1">
			<data element_type="f16" offset="2086136" shape="60,1,1,1" size="120"/>
			<output>
				<port id="1" precision="FP16">
					<dim>60</dim>
					<dim>1</dim>
					<dim>1</dim>
					<dim>1</dim>
				</port>
			</output>
		</layer>
		<layer id="411" name="landmarks_fc_lnose_x_new/WithoutBiases/fq_weights_1" type="FakeQuantize" version="opset1">
			<data levels="255"/>
			<input>
				<port id="0">
					<dim>60</dim>
					<dim>256</dim>
					<dim>1</dim>
					<dim>1</dim>
				</port>
				<port id="1">
					<dim>1</dim>
				</port>
				<port id="2">
					<dim>1</dim>
				</port>
				<port id="3">
					<dim>60</dim>
					<dim>1</dim>
					<dim>1</dim>
					<dim>1</dim>
				</port>
				<port id="4">
					<dim>60</dim>
					<dim>1</dim>
					<dim>1</dim>
					<dim>1</dim>
				</port>
			</input>
			<output>
				<port id="5" precision="FP16">
					<dim>60</dim>
					<dim>256</dim>
					<dim>1</dim>
					<dim>1</dim>
				</port>
			</output>
		</layer>
		<layer id="412" name="landmarks_fc_lnose_x_new/WithoutBiases" type="Convolution" version="opset1">
			<data dilations="1,1" output_padding="0,0" pads_begin="0,0" pads_end="0,0" strides="1,1"/>
			<input>
				<port id="0">
					<dim>1</dim>
					<dim>256</dim>
					<dim>1</dim>
					<dim>1</dim>
				</port>
				<port id="1">
					<dim>60</dim>
					<dim>256</dim>
					<dim>1</dim>
					<dim>1</dim>
				</port>
			</input>
			<output>
				<port id="2" precision="FP16">
					<dim>1</dim>
					<dim>60</dim>
					<dim>1</dim>
					<dim>1</dim>
				</port>
			</output>
		</layer>
		<layer id="413" name="landmarks_fc_lnose_x_new/Dims4977/copy_const589_const" type="Const" version="opset1">
			<data element_type="f16" offset="2086256" shape="1,60,1,1" size="120"/>
			<output>
				<port id="1" precision="FP16">
					<dim>1</dim>
					<dim>60</dim>
					<dim>1</dim>
					<dim>1</dim>
				</port>
			</output>
		</layer>
		<layer id="414" name="landmarks_fc_lnose_x_new" type="Add" version="opset1">
			<input>
				<port id="0">
					<dim>1</dim>
					<dim>60</dim>
					<dim>1</dim>
					<dim>1</dim>
				</port>
				<port id="1">
					<dim>1</dim>
					<dim>60</dim>
					<dim>1</dim>
					<dim>1</dim>
				</port>
			</input>
			<output>
				<port id="2" precision="FP16">
					<dim>1</dim>
					<dim>60</dim>
					<dim>1</dim>
					<dim>1</dim>
				</port>
			</output>
		</layer>
		<layer id="415" name="softmax_landmarks_lnose_x" type="SoftMax" version="opset1">
			<data axis="1"/>
			<input>
				<port id="0">
					<dim>1</dim>
					<dim>60</dim>
					<dim>1</dim>
					<dim>1</dim>
				</port>
			</input>
			<output>
				<port id="1" precision="FP16">
					<dim>1</dim>
					<dim>60</dim>
					<dim>1</dim>
					<dim>1</dim>
				</port>
			</output>
		</layer>
		<layer id="416" name="42314235_const" type="Const" version="opset1">
			<data element_type="f16" offset="448" shape="" size="2"/>
			<output>
				<port id="1" precision="FP16"/>
			</output>
		</layer>
		<layer id="417" name="42324236_const" type="Const" version="opset1">
…
		<edge from-layer="851" from-port="1" to-layer="852" to-port="4"/>
		<edge from-layer="853" from-port="1" to-layer="854" to-port="0"/>
		<edge from-layer="854" from-port="1" to-layer="859" to-port="0"/>
		<edge from-layer="855" from-port="1" to-layer="859" to-port="1"/>
		<edge from-layer="856" from-port="1" to-layer="859" to-port="2"/>
		<edge from-layer="857" from-port="1" to-layer="859" to-port="3"/>
		<edge from-layer="858" from-port="1" to-layer="859" to-port="4"/>
		<edge from-layer="852" from-port="5" to-layer="860" to-port="0"/>
		<edge from-layer="859" from-port="5" to-layer="860" to-port="1"/>
		<edge from-layer="860" from-port="2" to-layer="862" to-port="0"/>
		<edge from-layer="861" from-port="1" to-layer="862" to-port="1"/>
		<edge from-layer="862" from-port="2" to-layer="863" to-port="0"/>
		<edge from-layer="863" from-port="1" to-layer="868" to-port="0"/>
		<edge from-layer="864" from-port="1" to-layer="868" to-port="1"/>
		<edge from-layer="865" from-port="1" to-layer="868" to-port="2"/>
		<edge from-layer="866" from-port="1" to-layer="868" to-port="3"/>
		<edge from-layer="867" from-port="1" to-layer="868" to-port="4"/>
		<edge from-layer="869" from-port="1" to-layer="870" to-port="0"/>
		<edge from-layer="870" from-port="1" to-layer="875" to-port="0"/>
		<edge from-layer="871" from-port="1" to-layer="875" to-port="1"/>
		<edge from-layer="872" from-port="1" to-layer="875" to-port="2"/>
		<edge from-layer="873" from-port="1" to-layer="875" to-port="3"/>
		<edge from-layer="874" from-port="1" to-layer="875" to-port="4"/>
		<edge from-layer="852" from-port="5" to-layer="876" to-port="0"/>
		<edge from-layer="875" from-port="5" to-layer="876" to-port="1"/>
		<edge from-layer="876" from-port="2" to-layer="878" to-port="0"/>
		<edge from-layer="877" from-port="1" to-layer="878" to-port="1"/>
		<edge from-layer="878" from-port="2" to-layer="879" to-port="0"/>
		<edge from-layer="879" from-port="1" to-layer="884" to-port="0"/>
		<edge from-layer="880" from-port="1" to-layer="884" to-port="1"/>
		<edge from-layer="881" from-port="1" to-layer="884" to-port="2"/>
		<edge from-layer="882" from-port="1" to-layer="884" to-port="3"/>
		<edge from-layer="883" from-port="1" to-layer="884" to-port="4"/>
		<edge from-layer="885" from-port="1" to-layer="886" to-port="0"/>
		<edge from-layer="886" from-port="1" to-layer="891" to-port="0"/>
		<edge from-layer="887" from-port="1" to-layer="891" to-port="1"/>
		<edge from-layer="888" from-port="1" to-layer="891" to-port="2"/>
		<edge from-layer="889" from-port="1" to-layer="891" to-port="3"/>
		<edge from-layer="890" from-port="1" to-layer="891" to-port="4"/>
		<edge from-layer="852" from-port="5" to-layer="892" to-port="0"/>
		<edge from-layer="891" from-port="5" to-layer="892" to-port="1"/>
		<edge from-layer="892" from-port="2" to-layer="894" to-port="0"/>
		<edge from-layer="893" from-port="1" to-layer="894" to-port="1"/>
		<edge from-layer="894" from-port="2" to-layer="895" to-port="0"/>
		<edge from-layer="895" from-port="1" to-layer="900" to-port="0"/>
		<edge from-layer="896" from-port="1" to-layer="900" to-port="1"/>
		<edge from-layer="897" from-port="1" to-layer="900" to-port="2"/>
		<edge from-layer="898" from-port="1" to-layer="900" to-port="3"/>
		<edge from-layer="899" from-port="1" to-layer="900" to-port="4"/>
		<edge from-layer="901" from-port="1" to-layer="902" to-port="0"/>
		<edge from-layer="902" from-port="1" to-layer="907" to-port="0"/>
		<edge from-layer="903" from-port="1" to-layer="907" to-port="1"/>
		<edge from-layer="904" from-port="1" to-layer="907" to-port="2"/>
		<edge from-layer="905" from-port="1" to-layer="907" to-port="3"/>
		<edge from-layer="906" from-port="1" to-layer="907" to-port="4"/>
		<edge from-layer="852" from-port="5" to-layer="908" to-port="0"/>
		<edge from-layer="907" from-port="5" to-layer="908" to-port="1"/>
		<edge from-layer="908" from-port="2" to-layer="910" to-port="0"/>
		<edge from-layer="909" from-port="1" to-layer="910" to-port="1"/>
		<edge from-layer="910" from-port="2" to-layer="911" to-port="0"/>
		<edge from-layer="911" from-port="1" to-layer="916" to-port="0"/>
		<edge from-layer="912" from-port="1" to-layer="916" to-port="1"/>
		<edge from-layer="913" from-port="1" to-layer="916" to-port="2"/>
		<edge from-layer="914" from-port="1" to-layer="916" to-port="3"/>
		<edge from-layer="915" from-port="1" to-layer="916" to-port="4"/>
		<edge from-layer="917" from-port="1" to-layer="918" to-port="0"/>
		<edge from-layer="918" from-port="1" to-layer="923" to-port="0"/>
		<edge from-layer="919" from-port="1" to-layer="923" to-port="1"/>
		<edge from-layer="920" from-port="1" to-layer="923" to-port="2"/>
		<edge from-layer="921" from-port="1" to-layer="923" to-port="3"/>
		<edge from-layer="922" from-port="1" to-layer="923" to-port="4"/>
		<edge from-layer="852" from-port="5" to-layer="924" to-port="0"/>
		<edge from-layer="923" from-port="5" to-layer="924" to-port="1"/>
		<edge from-layer="924" from-port="2" to-layer="926" to-port="0"/>
		<edge from-layer="925" from-port="1" to-layer="926" to-port="1"/>
		<edge from-layer="926" from-port="2" to-layer="927" to-port="0"/>
		<edge from-layer="927" from-port="1" to-layer="932" to-port="0"/>
		<edge from-layer="928" from-port="1" to-layer="932" to-port="1"/>
		<edge from-layer="929" from-port="1" to-layer="932" to-port="2"/>
		<edge from-layer="930" from-port="1" to-layer="932" to-port="3"/>
		<edge from-layer="931" from-port="1" to-layer="932" to-port="4"/>
		<edge from-layer="933" from-port="1" to-layer="934" to-port="0"/>
		<edge from-layer="934" from-port="1" to-layer="939" to-port="0"/>
		<edge from-layer="935" from-port="1" to-layer="939" to-port="1"/>
		<edge from-layer="936" from-port="1" to-layer="939" to-port="2"/>
		<edge from-layer="937" from-port="1" to-layer="939" to-port="3"/>
		<edge from-layer="938" from-port="1" to-layer="939" to-port="4"/>
		<edge from-layer="852" from-port="5" to-layer="940" to-port="0"/>
		<edge from-layer="939" from-port="5" to-layer="940" to-port="1"/>
		<edge from-layer="940" from-port="2" to-layer="942" to-port="0"/>
		<edge from-layer="941" from-port="1" to-layer="942" to-port="1"/>
		<edge from-layer="942" from-port="2" to-layer="943" to-port="0"/>
		<edge from-layer="943" from-port="1" to-layer="948" to-port="0"/>
		<edge from-layer="944" from-port="1" to-layer="948" to-port="1"/>
		<edge from-layer="945" from-port="1" to-layer="948" to-port="2"/>
		<edge from-layer="946" from-port="1" to-layer="948" to-port="3"/>
		<edge from-layer="947" from-port="1" to-layer="948" to-port="4"/>
		<edge from-layer="949" from-port="1" to-layer="950" to-port="0"/>
		<edge from-layer="950" from-port="1" to-layer="955" to-port="0"/>
		<edge from-layer="951" from-port="1" to-layer="955" to-port="1"/>
		<edge from-layer="952" from-port="1" to-layer="955" to-port="2"/>
		<edge from-layer="953" from-port="1" to-layer="955" to-port="3"/>
		<edge from-layer="954" from-port="1" to-layer="955" to-port="4"/>
		<edge from-layer="852" from-port="5" to-layer="956" to-port="0"/>
		<edge from-layer="955" from-port="5" to-layer="956" to-port="1"/>
		<edge from-layer="956" from-port="2" to-layer="958" to-port="0"/>
		<edge from-layer="957" from-port="1" to-layer="958" to-port="1"/>
		<edge from-layer="958" from-port="2" to-layer="959" to-port="0"/>
		<edge from-layer="959" from-port="1" to-layer="964" to-port="0"/>
		<edge from-layer="960" from-port="1" to-layer="964" to-port="1"/>
		<edge from-layer="961" from-port="1" to-layer="964" to-port="2"/>
		<edge from-layer="962" from-port="1" to-layer="964" to-port="3"/>
		<edge from-layer="963" from-port="1" to-layer="964" to-port="4"/>
		<edge from-layer="965" from-port="1" to-layer="966" to-port="0"/>
		<edge from-layer="966" from-port="1" to-layer="971" to-port="0"/>
		<edge from-layer="967" from-port="1" to-layer="971" to-port="1"/>
		<edge from-layer="968" from-port="1" to-layer="971" to-port="2"/>
		<edge from-layer="969" from-port="1" to-layer="971" to-port="3"/>
		<edge from-layer="970" from-port="1" to-layer="971" to-port="4"/>
		<edge from-layer="852" from-port="5" to-layer="972" to-port="0"/>
		<edge from-layer="971" from-port="5" to-layer="972" to-port="1"/>
		<edge from-layer="972" from-port="2" to-layer="974" to-port="0"/>
		<edge from-layer="973" from-port="1" to-layer="974" to-port="1"/>
		<edge from-layer="974" from-port="2" to-layer="975" to-port="0"/>
		<edge from-layer="975" from-port="1" to-layer="980" to-port="0"/>
		<edge from-layer="976" from-port="1" to-layer="980" to-port="1"/>
		<edge from-layer="977" from-port="1" to-layer="980" to-port="2"/>
		<edge from-layer="978" from-port="1" to-layer="980" to-port="3"/>
		<edge from-layer="979" from-port="1" to-layer="980" to-port="4"/>
		<edge from-layer="981" from-port="1" to-layer="982" to-port="0"/>
		<edge from-layer="982" from-port="1" to-layer="987" to-port="0"/>
		<edge from-layer="983" from-port="1" to-layer="987" to-port="1"/>
		<edge from-layer="984" from-port="1" to-layer="987" to-port="2"/>
		<edge from-layer="985" from-port="1" to-layer="987" to-port="3"/>
		<edge from-layer="986" from-port="1" to-layer="987" to-port="4"/>
		<edge from-layer="852" from-port="5" to-layer="988" to-port="0"/>
		<edge from-layer="987" from-port="5" to-layer="988" to-port="1"/>
		<edge from-layer="988" from-port="2" to-layer="990" to-port="0"/>
		<edge from-layer="989" from-port="1" to-layer="990" to-port="1"/>
		<edge from-layer="990" from-port="2" to-layer="991" to-port="0"/>
		<edge from-layer="991" from-port="1" to-layer="996" to-port="0"/>
		<edge from-layer="992" from-port="1" to-layer="996" to-port="1"/>
		<edge from-layer="993" from-port="1" to-layer="996" to-port="2"/>
		<edge from-layer="994" from-port="1" to-layer="996" to-port="3"/>
		<edge from-layer="995" from-port="1" to-layer="996" to-port="4"/>
		<edge from-layer="997" from-port="1" to-layer="998" to-port="0"/>
		<edge from-layer="998" from-port="1" to-layer="1003" to-port="0"/>
		<edge from-layer="999" from-port="1" to-layer="1003" to-port="1"/>
		<edge from-layer="1000" from-port="1" to-layer="1003" to-port="2"/>
		<edge from-layer="1001" from-port="1" to-layer="1003" to-port="3"/>
		<edge from-layer="1002" from-port="1" to-layer="1003" to-port="4"/>
		<edge from-layer="852" from-port="5" to-layer="1004" to-port="0"/>
		<edge from-layer="1003" from-port="5" to-layer="1004" to-port="1"/>
		<edge from-layer="1004" from-port="2" to-layer="1006" to-port="0"/>
		<edge from-layer="1005" from-port="1" to-layer="1006" to-port="1"/>
		<edge from-layer="1006" from-port="2" to-layer="1007" to-port="0"/>
		<edge from-layer="1007" from-port="1" to-layer="1012" to-port="0"/>
		<edge from-layer="1008" from-port="1" to-layer="1012" to-port="1"/>
		<edge from-layer="1009" from-port="1" to-layer="1012" to-port="2"/>
		<edge from-layer="1010" from-port="1" to-layer="1012" to-port="3"/>
		<edge from-layer="1011" from-port="1" to-layer="1012" to-port="4"/>
		<edge from-layer="1013" from-port="1" to-layer="1014" to-port="0"/>
		<edge from-layer="1014" from-port="1" to-layer="1019" to-port="0"/>
		<edge from-layer="1015" from-port="1" to-layer="1019" to-port="1"/>
		<edge from-layer="1016" from-port="1" to-layer="1019" to-port="2"/>
		<edge from-layer="1017" from-port="1" to-layer="1019" to-port="3"/>
		<edge from-layer="1018" from-port="1" to-layer="1019" to-port="4"/>
		<edge from-layer="852" from-port="5" to-layer="1020" to-port="0"/>
		<edge from-layer="1019" from-port="5" to-layer="1020" to-port="1"/>
		<edge from-layer="1020" from-port="2" to-layer="1022" to-port="0"/>
		<edge from-layer="1021" from-port="1" to-layer="1022" to-port="1"/>
		<edge from-layer="1022" from-port="2" to-layer="1023" to-port="0"/>
		<edge from-layer="1023" from-port="1" to-layer="1028" to-port="0"/>
		<edge from-layer="1024" from-port="1" to-layer="1028" to-port="1"/>
		<edge from-layer="1025" from-port="1" to-layer="1028" to-port="2"/>
		<edge from-layer="1026" from-port="1" to-layer="1028" to-port="3"/>
		<edge from-layer="1027" from-port="1" to-layer="1028" to-port="4"/>
		<edge from-layer="1029" from-port="1" to-layer="1030" to-port="0"/>
		<edge from-layer="1030" from-port="1" to-layer="1035" to-port="0"/>
		<edge from-layer="1031" from-port="1" to-layer="1035" to-port="1"/>
		<edge from-layer="1032" from-port="1" to-layer="1035" to-port="2"/>
		<edge from-layer="1033" from-port="1" to-layer="1035" to-port="3"/>
		<edge from-layer="1034" from-port="1" to-layer="1035" to-port="4"/>
		<edge from-layer="852" from-port="5" to-layer="1036" to-port="0"/>
		<edge from-layer="1035" from-port="5" to-layer="1036" to-port="1"/>
		<edge from-layer="1036" from-port="2" to-layer="1038" to-port="0"/>
		<edge from-layer="1037" from-port="1" to-layer="1038" to-port="1"/>
		<edge from-layer="1038" from-port="2" to-layer="1039" to-port="0"/>
		<edge from-layer="1039" from-port="1" to-layer="1044" to-port="0"/>
		<edge from-layer="1040" from-port="1" to-layer="1044" to-port="1"/>
		<edge from-layer="1041" from-port="1" to-layer="1044" to-port="2"/>
		<edge from-layer="1042" from-port="1" to-layer="1044" to-port="3"/>
		<edge from-layer="1043" from-port="1" to-layer="1044" to-port="4"/>
		<edge from-layer="1045" from-port="1" to-layer="1046" to-port="0"/>
		<edge from-layer="1046" from-port="1" to-layer="1051" to-port="0"/>
		<edge from-layer="1047" from-port="1" to-layer="1051" to-port="1"/>
		<edge from-layer="1048" from-port="1" to-layer="1051" to-port="2"/>
		<edge from-layer="1049" from-port="1" to-layer="1051" to-port="3"/>
		<edge from-layer="1050" from-port="1" to-layer="1051" to-port="4"/>
		<edge from-layer="852" from-port="5" to-layer="1052" to-port="0"/>
		<edge from-layer="1051" from-port="5" to-layer="1052" to-port="1"/>
		<edge from-layer="1052" from-port="2" to-layer="1054" to-port="0"/>
		<edge from-layer="1053" from-port="1" to-layer="1054" to-port="1"/>
		<edge from-layer="1054" from-port="2" to-layer="1055" to-port="0"/>
		<edge from-layer="1055" from-port="1" to-layer="1060" to-port="0"/>
		<edge from-layer="1056" from-port="1" to-layer="1060" to-port="1"/>
		<edge from-layer="1057" from-port="1" to-layer="1060" to-port="2"/>
		<edge from-layer="1058" from-port="1" to-layer="1060" to-port="3"/>
		<edge from-layer="1059" from-port="1" to-layer="1060" to-port="4"/>
		<edge from-layer="1061" from-port="1" to-layer="1062" to-port="0"/>
		<edge from-layer="1062" from-port="1" to-layer="1067" to-port="0"/>
		<edge from-layer="1063" from-port="1" to-layer="1067" to-port="1"/>
		<edge from-layer="1064" from-port="1" to-layer="1067" to-port="2"/>
		<edge from-layer="1065" from-port="1" to-layer="1067" to-port="3"/>
		<edge from-layer="1066" from-port="1" to-layer="1067" to-port="4"/>
		<edge from-layer="852" from-port="5" to-layer="1068" to-port="0"/>
		<edge from-layer="1067" from-port="5" to-layer="1068" to-port="1"/>
		<edge from-layer="1068" from-port="2" to-layer="1070" to-port="0"/>
		<edge from-layer="1069" from-port="1" to-layer="1070" to-port="1"/>
		<edge from-layer="1070" from-port="2" to-layer="1071" to-port="0"/>
		<edge from-layer="1071" from-port="1" to-layer="1076" to-port="0"/>
		<edge from-layer="1072" from-port="1" to-layer="1076" to-port="1"/>
		<edge from-layer="1073" from-port="1" to-layer="1076" to-port="2"/>
		<edge from-layer="1074" from-port="1" to-layer="1076" to-port="3"/>
		<edge from-layer="1075" from-port="1" to-layer="1076" to-port="4"/>
		<edge from-layer="1077" from-port="1" to-layer="1078" to-port="0"/>
		<edge from-layer="1078" from-port="1" to-layer="1083" to-port="0"/>
		<edge from-layer="1079" from-port="1" to-layer="1083" to-port="1"/>
		<edge from-layer="1080" from-port="1" to-layer="1083" to-port="2"/>
		<edge from-layer="1081" from-port="1" to-layer="1083" to-port="3"/>
		<edge from-layer="1082" from-port="1" to-layer="1083" to-port="4"/>
		<edge from-layer="852" from-port="5" to-layer="1084" to-port="0"/>
		<edge from-layer="1083" from-port="5" to-layer="1084" to-port="1"/>
		<edge from-layer="1084" from-port="2" to-layer="1086" to-port="0"/>
		<edge from-layer="1085" from-port="1" to-layer="1086" to-port="1"/>
		<edge from-layer="1086" from-port="2" to-layer="1087" to-port="0"/>
		<edge from-layer="1087" from-port="1" to-layer="1092" to-port="0"/>
		<edge from-layer="1088" from-port="1" to-layer="1092" to-port="1"/>
		<edge from-layer="1089" from-port="1" to-layer="1092" to-port="2"/>
		<edge from-layer="1090" from-port="1" to-layer="1092" to-port="3"/>
		<edge from-layer="1091" from-port="1" to-layer="1092" to-port="4"/>
		<edge from-layer="1093" from-port="1" to-layer="1094" to-port="0"/>
		<edge from-layer="1094" from-port="1" to-layer="1099" to-port="0"/>
		<edge from-layer="1095" from-port="1" to-layer="1099" to-port="1"/>
		<edge from-layer="1096" from-port="1" to-layer="1099" to-port="2"/>
		<edge from-layer="1097" from-port="1" to-layer="1099" to-port="3"/>
		<edge from-layer="1098" from-port="1" to-layer="1099" to-port="4"/>
		<edge from-layer="852" from-port="5" to-layer="1100" to-port="0"/>
		<edge from-layer="1099" from-port="5" to-layer="1100" to-port="1"/>
		<edge from-layer="1100" from-port="2" to-layer="1102" to-port="0"/>
		<edge from-layer="1101" from-port="1" to-layer="1102" to-port="1"/>
		<edge from-layer="1102" from-port="2" to-layer="1103" to-port="0"/>
		<edge from-layer="1103" from-port="1" to-layer="1108" to-port="0"/>
		<edge from-layer="1104" from-port="1" to-layer="1108" to-port="1"/>
		<edge from-layer="1105" from-port="1" to-layer="1108" to-port="2"/>
		<edge from-layer="1106" from-port="1" to-layer="1108" to-port="3"/>
		<edge from-layer="1107" from-port="1" to-layer="1108" to-port="4"/>
		<edge from-layer="1109" from-port="1" to-layer="1110" to-port="0"/>
		<edge from-layer="1110" from-port="1" to-layer="1115" to-port="0"/>
		<edge from-layer="1111" from-port="1" to-layer="1115" to-port="1"/>
		<edge from-layer="1112" from-port="1" to-layer="1115" to-port="2"/>
		<edge from-layer="1113" from-port="1" to-layer="1115" to-port="3"/>
		<edge from-layer="1114" from-port="1" to-layer="1115" to-port="4"/>
		<edge from-layer="852" from-port="5" to-layer="1116" to-port="0"/>
		<edge from-layer="1115" from-port="5" to-layer="1116" to-port="1"/>
		<edge from-layer="1116" from-port="2" to-layer="1118" to-port="0"/>
		<edge from-layer="1117" from-port="1" to-layer="1118" to-port="1"/>
		<edge from-layer="1118" from-port="2" to-layer="1119" to-port="0"/>
		<edge from-layer="1119" from-port="1" to-layer="1124" to-port="0"/>
		<edge from-layer="1120" from-port="1" to-layer="1124" to-port="1"/>
		<edge from-layer="1121" from-port="1" to-layer="1124" to-port="2"/>
		<edge from-layer="1122" from-port="1" to-layer="1124" to-port="3"/>
		<edge from-layer="1123" from-port="1" to-layer="1124" to-port="4"/>
		<edge from-layer="1125" from-port="1" to-layer="1126" to-port="0"/>
		<edge from-layer="1126" from-port="1" to-layer="1131" to-port="0"/>
		<edge from-layer="1127" from-port="1" to-layer="1131" to-port="1"/>
		<edge from-layer="1128" from-port="1" to-layer="1131" to-port="2"/>
		<edge from-layer="1129" from-port="1" to-layer="1131" to-port="3"/>
		<edge from-layer="1130" from-port="1" to-layer="1131" to-port="4"/>
		<edge from-layer="852" from-port="5" to-layer="1132" to-port="0"/>
		<edge from-layer="1131" from-port="5" to-layer="1132" to-port="1"/>
		<edge from-layer="1132" from-port="2" to-layer="1134" to-port="0"/>
		<edge from-layer="1133" from-port="1" to-layer="1134" to-port="1"/>
		<edge from-layer="1134" from-port="2" to-layer="1135" to-port="0"/>
		<edge from-layer="1135" from-port="1" to-layer="1140" to-port="0"/>
		<edge from-layer="1136" from-port="1" to-layer="1140" to-port="1"/>
		<edge from-layer="1137" from-port="1" to-layer="1140" to-port="2"/>
		<edge from-layer="1138" from-port="1" to-layer="1140" to-port="3"/>
		<edge from-layer="1139" from-port="1" to-layer="1140" to-port="4"/>
		<edge from-layer="1141" from-port="1" to-layer="1142" to-port="0"/>
		<edge from-layer="1142" from-port="1" to-layer="1147" to-port="0"/>
		<edge from-layer="1143" from-port="1" to-layer="1147" to-port="1"/>
		<edge from-layer="1144" from-port="1" to-layer="1147" to-port="2"/>
		<edge from-layer="1145" from-port="1" to-layer="1147" to-port="3"/>
		<edge from-layer="1146" from-port="1" to-layer="1147" to-port="4"/>
		<edge from-layer="852" from-port="5" to-layer="1148" to-port="0"/>
		<edge from-layer="1147" from-port="5" to-layer="1148" to-port="1"/>
		<edge from-layer="1148" from-port="2" to-layer="1150" to-port="0"/>
		<edge from-layer="1149" from-port="1" to-layer="1150" to-port="1"/>
		<edge from-layer="1150" from-port="2" to-layer="1151" to-port="0"/>
		<edge from-layer="1151" from-port="1" to-layer="1156" to-port="0"/>
		<edge from-layer="1152" from-port="1" to-layer="1156" to-port="1"/>
		<edge from-layer="1153" from-port="1" to-layer="1156" to-port="2"/>
		<edge from-layer="1154" from-port="1" to-layer="1156" to-port="3"/>
		<edge from-layer="1155" from-port="1" to-layer="1156" to-port="4"/>
		<edge from-layer="1157" from-port="1" to-layer="1158" to-port="0"/>
		<edge from-layer="1158" from-port="1" to-layer="1163" to-port="0"/>
		<edge from-layer="1159" from-port="1" to-layer="1163" to-port="1"/>
		<edge from-layer="1160" from-port="1" to-layer="1163" to-port="2"/>
		<edge from-layer="1161" from-port="1" to-layer="1163" to-port="3"/>
		<edge from-layer="1162" from-port="1" to-layer="1163" to-port="4"/>
		<edge from-layer="852" from-port="5" to-layer="1164" to-port="0"/>
		<edge from-layer="1163" from-port="5" to-layer="1164" to-port="1"/>
		<edge from-layer="1164" from-port="2" to-layer="1166" to-port="0"/>
		<edge from-layer="1165" from-port="1" to-layer="1166" to-port="1"/>
		<edge from-layer="1166" from-port="2" to-layer="1167" to-port="0"/>
		<edge from-layer="1167" from-port="1" to-layer="1172" to-port="0"/>
		<edge from-layer="1168" from-port="1" to-layer="1172" to-port="1"/>
		<edge from-layer="1169" from-port="1" to-layer="1172" to-port="2"/>
		<edge from-layer="1170" from-port="1" to-layer="1172" to-port="3"/>
		<edge from-layer="1171" from-port="1" to-layer="1172" to-port="4"/>
		<edge from-layer="1173" from-port="1" to-layer="1174" to-port="0"/>
		<edge from-layer="1174" from-port="1" to-layer="1179" to-port="0"/>
		<edge from-layer="1175" from-port="1" to-layer="1179" to-port="1"/>
		<edge from-layer="1176" from-port="1" to-layer="1179" to-port="2"/>
		<edge from-layer="1177" from-port="1" to-layer="1179" to-port="3"/>
		<edge from-layer="1178" from-port="1" to-layer="1179" to-port="4"/>
		<edge from-layer="852" from-port="5" to-layer="1180" to-port="0"/>
		<edge from-layer="1179" from-port="5" to-layer="1180" to-port="1"/>
		<edge from-layer="1180" from-port="2" to-layer="1182" to-port="0"/>
		<edge from-layer="1181" from-port="1" to-layer="1182" to-port="1"/>
		<edge from-layer="1182" from-port="2" to-layer="1183" to-port="0"/>
		<edge from-layer="1183" from-port="1" to-layer="1188" to-port="0"/>
		<edge from-layer="1184" from-port="1" to-layer="1188" to-port="1"/>
		<edge from-layer="1185" from-port="1" to-layer="1188" to-port="2"/>
		<edge from-layer="1186" from-port="1" to-layer="1188" to-port="3"/>
		<edge from-layer="1187" from-port="1" to-layer="1188" to-port="4"/>
		<edge from-layer="1189" from-port="1" to-layer="1190" to-port="0"/>
		<edge from-layer="1190" from-port="1" to-layer="1195" to-port="0"/>
		<edge from-layer="1191" from-port="1" to-layer="1195" to-port="1"/>
		<edge from-layer="1192" from-port="1" to-layer="1195" to-port="2"/>
		<edge from-layer="1193" from-port="1" to-layer="1195" to-port="3"/>
		<edge from-layer="1194" from-port="1" to-layer="1195" to-port="4"/>
		<edge from-layer="852" from-port="5" to-layer="1196" to-port="0"/>
		<edge from-layer="1195" from-port="5" to-layer="1196" to-port="1"/>
		<edge from-layer="1196" from-port="2" to-layer="1198" to-port="0"/>
		<edge from-layer="1197" from-port="1" to-layer="1198" to-port="1"/>
		<edge from-layer="1198" from-port="2" to-layer="1199" to-port="0"/>
		<edge from-layer="1199" from-port="1" to-layer="1204" to-port="0"/>
		<edge from-layer="1200" from-port="1" to-layer="1204" to-port="1"/>
		<edge from-layer="1201" from-port="1" to-layer="1204" to-port="2"/>
		<edge from-layer="1202" from-port="1" to-layer="1204" to-port="3"/>
		<edge from-layer="1203" from-port="1" to-layer="1204" to-port="4"/>
		<edge from-layer="1205" from-port="1" to-layer="1206" to-port="0"/>
		<edge from-layer="1206" from-port="1" to-layer="1211" to-port="0"/>
		<edge from-layer="1207" from-port="1" to-layer="1211" to-port="1"/>
		<edge from-layer="1208" from-port="1" to-layer="1211" to-port="2"/>
		<edge from-layer="1209" from-port="1" to-layer="1211" to-port="3"/>
		<edge from-layer="1210" from-port="1" to-layer="1211" to-port="4"/>
		<edge from-layer="852" from-port="5" to-layer="1212" to-port="0"/>
		<edge from-layer="1211" from-port="5" to-layer="1212" to-port="1"/>
		<edge from-layer="1212" from-port="2" to-layer="1214" to-port="0"/>
		<edge from-layer="1213" from-port="1" to-layer="1214" to-port="1"/>
		<edge from-layer="1214" from-port="2" to-layer="1215" to-port="0"/>
		<edge from-layer="1215" from-port="1" to-layer="1220" to-port="0"/>
		<edge from-layer="1216" from-port="1" to-layer="1220" to-port="1"/>
		<edge from-layer="1217" from-port="1" to-layer="1220" to-port="2"/>
		<edge from-layer="1218" from-port="1" to-layer="1220" to-port="3"/>
		<edge from-layer="1219" from-port="1" to-layer="1220" to-port="4"/>
		<edge from-layer="1221" from-port="1" to-layer="1222" to-port="0"/>
		<edge from-layer="1222" from-port="1" to-layer="1227" to-port="0"/>
		<edge from-layer="1223" from-port="1" to-layer="1227" to-port="1"/>
		<edge from-layer="1224" from-port="1" to-layer="1227" to-port="2"/>
		<edge from-layer="1225" from-port="1" to-layer="1227" to-port="3"/>
		<edge from-layer="1226" from-port="1" to-layer="1227" to-port="4"/>
		<edge from-layer="852" from-port="5" to-layer="1228" to-port="0"/>
		<edge from-layer="1227" from-port="5" to-layer="1228" to-port="1"/>
		<edge from-layer="1228" from-port="2" to-layer="1230" to-port="0"/>
		<edge from-layer="1229" from-port="1" to-layer="1230" to-port="1"/>
		<edge from-layer="1230" from-port="2" to-layer="1231" to-port="0"/>
		<edge from-layer="1231" from-port="1" to-layer="1236" to-port="0"/>
		<edge from-layer="1232" from-port="1" to-layer="1236" to-port="1"/>
		<edge from-layer="1233" from-port="1" to-layer="1236" to-port="2"/>
		<edge from-layer="1234" from-port="1" to-layer="1236" to-port="3"/>
		<edge from-layer="1235" from-port="1" to-layer="1236" to-port="4"/>
		<edge from-layer="1237" from-port="1" to-layer="1238" to-port="0"/>
		<edge from-layer="1238" from-port="1" to-layer="1243" to-port="0"/>
		<edge from-layer="1239" from-port="1" to-layer="1243" to-port="1"/>
		<edge from-layer="1240" from-port="1" to-layer="1243" to-port="2"/>
		<edge from-layer="1241" from-port="1" to-layer="1243" to-port="3"/>
		<edge from-layer="1242" from-port="1" to-layer="1243" to-port="4"/>
		<edge from-layer="852" from-port="5" to-layer="1244" to-port="0"/>
		<edge from-layer="1243" from-port="5" to-layer="1244" to-port="1"/>
		<edge from-layer="1244" from-port="2" to-layer="1246" to-port="0"/>
		<edge from-layer="1245" from-port="1" to-layer="1246" to-port="1"/>
		<edge from-layer="1246" from-port="2" to-layer="1247" to-port="0"/>
		<edge from-layer="1247" from-port="1" to-layer="1252" to-port="0"/>
		<edge from-layer="1248" from-port="1" to-layer="1252" to-port="1"/>
		<edge from-layer="1249" from-port="1" to-layer="1252" to-port="2"/>
		<edge from-layer="1250" from-port="1" to-layer="1252" to-port="3"/>
		<edge from-layer="1251" from-port="1" to-layer="1252" to-port="4"/>
		<edge from-layer="1253" from-port="1" to-layer="1254" to-port="0"/>
		<edge from-layer="1254" from-port="1" to-layer="1259" to-port="0"/>
		<edge from-layer="1255" from-port="1" to-layer="1259" to-port="1"/>
		<edge from-layer="1256" from-port="1" to-layer="1259" to-port="2"/>
		<edge from-layer="1257" from-port="1" to-layer="1259" to-port="3"/>
		<edge from-layer="1258" from-port="1" to-layer="1259" to-port="4"/>
		<edge from-layer="852" from-port="5" to-layer="1260" to-port="0"/>
		<edge from-layer="1259" from-port="5" to-layer="1260" to-port="1"/>
		<edge from-layer="1260" from-port="2" to-layer="1262" to-port="0"/>
		<edge from-layer="1261" from-port="1" to-layer="1262" to-port="1"/>
		<edge from-layer="1262" from-port="2" to-layer="1263" to-port="0"/>
		<edge from-layer="1263" from-port="1" to-layer="1268" to-port="0"/>
		<edge from-layer="1264" from-port="1" to-layer="1268" to-port="1"/>
		<edge from-layer="1265" from-port="1" to-layer="1268" to-port="2"/>
		<edge from-layer="1266" from-port="1" to-layer="1268" to-port="3"/>
		<edge from-layer="1267" from-port="1" to-layer="1268" to-port="4"/>
		<edge from-layer="1269" from-port="1" to-layer="1270" to-port="0"/>
		<edge from-layer="1270" from-port="1" to-layer="1275" to-port="0"/>
		<edge from-layer="1271" from-port="1" to-layer="1275" to-port="1"/>
		<edge from-layer="1272" from-port="1" to-layer="1275" to-port="2"/>
		<edge from-layer="1273" from-port="1" to-layer="1275" to-port="3"/>
		<edge from-layer="1274" from-port="1" to-layer="1275" to-port="4"/>
		<edge from-layer="852" from-port="5" to-layer="1276" to-port="0"/>
		<edge from-layer="1275" from-port="5" to-layer="1276" to-port="1"/>
		<edge from-layer="1276" from-port="2" to-layer="1278" to-port="0"/>
		<edge from-layer="1277" from-port="1" to-layer="1278" to-port="1"/>
		<edge from-layer="1278" from-port="2" to-layer="1279" to-port="0"/>
		<edge from-layer="1279" from-port="1" to-layer="1284" to-port="0"/>
		<edge from-layer="1280" from-port="1" to-layer="1284" to-port="1"/>
		<edge from-layer="1281" from-port="1" to-layer="1284" to-port="2"/>
		<edge from-layer="1282" from-port="1" to-layer="1284" to-port="3"/>
		<edge from-layer="1283" from-port="1" to-layer="1284" to-port="4"/>
		<edge from-layer="1285" from-port="1" to-layer="1286" to-port="0"/>
		<edge from-layer="1286" from-port="1" to-layer="1291" to-port="0"/>
		<edge from-layer="1287" from-port="1" to-layer="1291" to-port="1"/>
		<edge from-layer="1288" from-port="1" to-layer="1291" to-port="2"/>
		<edge from-layer="1289" from-port="1" to-layer="1291" to-port="3"/>
		<edge from-layer="1290" from-port="1" to-layer="1291" to-port="4"/>
		<edge from-layer="852" from-port="5" to-layer="1292" to-port="0"/>
		<edge from-layer="1291" from-port="5" to-layer="1292" to-port="1"/>
		<edge from-layer="1292" from-port="2" to-layer="1294" to-port="0"/>
		<edge from-layer="1293" from-port="1" to-layer="1294" to-port="1"/>
		<edge from-layer="1294" from-port="2" to-layer="1295" to-port="0"/>
		<edge from-layer="1295" from-port="1" to-layer="1300" to-port="0"/>
		<edge from-layer="1296" from-port="1" to-layer="1300" to-port="1"/>
		<edge from-layer="1297" from-port="1" to-layer="1300" to-port="2"/>
		<edge from-layer="1298" from-port="1" to-layer="1300" to-port="3"/>
		<edge from-layer="1299" from-port="1" to-layer="1300" to-port="4"/>
		<edge from-layer="1301" from-port="1" to-layer="1302" to-port="0"/>
		<edge from-layer="1302" from-port="1" to-layer="1307" to-port="0"/>
		<edge from-layer="1303" from-port="1" to-layer="1307" to-port="1"/>
		<edge from-layer="1304" from-port="1" to-layer="1307" to-port="2"/>
		<edge from-layer="1305" from-port="1" to-layer="1307" to-port="3"/>
		<edge from-layer="1306" from-port="1" to-layer="1307" to-port="4"/>
		<edge from-layer="852" from-port="5" to-layer="1308" to-port="0"/>
		<edge from-layer="1307" from-port="5" to-layer="1308" to-port="1"/>
		<edge from-layer="1308" from-port="2" to-layer="1310" to-port="0"/>
		<edge from-layer="1309" from-port="1" to-layer="1310" to-port="1"/>
		<edge from-layer="1310" from-port="2" to-layer="1311" to-port="0"/>
		<edge from-layer="1311" from-port="1" to-layer="1316" to-port="0"/>
		<edge from-layer="1312" from-port="1" to-layer="1316" to-port="1"/>
		<edge from-layer="1313" from-port="1" to-layer="1316" to-port="2"/>
		<edge from-layer="1314" from-port="1" to-layer="1316" to-port="3"/>
		<edge from-layer="1315" from-port="1" to-layer="1316" to-port="4"/>
		<edge from-layer="1317" from-port="1" to-layer="1318" to-port="0"/>
		<edge from-layer="1318" from-port="1" to-layer="1323" to-port="0"/>
		<edge from-layer="1319" from-port="1" to-layer="1323" to-port="1"/>
		<edge from-layer="1320" from-port="1" to-layer="1323" to-port="2"/>
		<edge from-layer="1321" from-port="1" to-layer="1323" to-port="3"/>
		<edge from-layer="1322" from-port="1" to-layer="1323" to-port="4"/>
		<edge from-layer="852" from-port="5" to-layer="1324" to-port="0"/>
		<edge from-layer="1323" from-port="5" to-layer="1324" to-port="1"/>
		<edge from-layer="1324" from-port="2" to-layer="1326" to-port="0"/>
		<edge from-layer="1325" from-port="1" to-layer="1326" to-port="1"/>
		<edge from-layer="1326" from-port="2" to-layer="1327" to-port="0"/>
		<edge from-layer="1327" from-port="1" to-layer="1332" to-port="0"/>
		<edge from-layer="1328" from-port="1" to-layer="1332" to-port="1"/>
		<edge from-layer="1329" from-port="1" to-layer="1332" to-port="2"/>
		<edge from-layer="1330" from-port="1" to-layer="1332" to-port="3"/>
		<edge from-layer="1331" from-port="1" to-layer="1332" to-port="4"/>
		<edge from-layer="1333" from-port="1" to-layer="1334" to-port="0"/>
		<edge from-layer="1334" from-port="1" to-layer="1339" to-port="0"/>
		<edge from-layer="1335" from-port="1" to-layer="1339" to-port="1"/>
		<edge from-layer="1336" from-port="1" to-layer="1339" to-port="2"/>
		<edge from-layer="1337" from-port="1" to-layer="1339" to-port="3"/>
		<edge from-layer="1338" from-port="1" to-layer="1339" to-port="4"/>
		<edge from-layer="852" from-port="5" to-layer="1340" to-port="0"/>
		<edge from-layer="1339" from-port="5" to-layer="1340" to-port="1"/>
		<edge from-layer="1340" from-port="2" to-layer="1342" to-port="0"/>
		<edge from-layer="1341" from-port="1" to-layer="1342" to-port="1"/>
		<edge from-layer="1342" from-port="2" to-layer="1343" to-port="0"/>
		<edge from-layer="1343" from-port="1" to-layer="1348" to-port="0"/>
		<edge from-layer="1344" from-port="1" to-layer="1348" to-port="1"/>
		<edge from-layer="1345" from-port="1" to-layer="1348" to-port="2"/>
		<edge from-layer="1346" from-port="1" to-layer="1348" to-port="3"/>
		<edge from-layer="1347" from-port="1" to-layer="1348" to-port="4"/>
		<edge from-layer="1349" from-port="1" to-layer="1350" to-port="0"/>
		<edge from-layer="1350" from-port="1" to-layer="1355" to-port="0"/>
		<edge from-layer="1351" from-port="1" to-layer="1355" to-port="1"/>
		<edge from-layer="1352" from-port="1" to-layer="1355" to-port="2"/>
		<edge from-layer="1353" from-port="1" to-layer="1355" to-port="3"/>
		<edge from-layer="1354" from-port="1" to-layer="1355" to-port="4"/>
		<edge from-layer="852" from-port="5" to-layer="1356" to-port="0"/>
		<edge from-layer="1355" from-port="5" to-layer="1356" to-port="1"/>
		<edge from-layer="1356" from-port="2" to-layer="1358" to-port="0"/>
		<edge from-layer="1357" from-port="1" to-layer="1358" to-port="1"/>
		<edge from-layer="1358" from-port="2" to-layer="1359" to-port="0"/>
		<edge from-layer="1359" from-port="1" to-layer="1364" to-port="0"/>
		<edge from-layer="1360" from-port="1" to-layer="1364" to-port="1"/>
		<edge from-layer="1361" from-port="1" to-layer="1364" to-port="2"/>
		<edge from-layer="1362" from-port="1" to-layer="1364" to-port="3"/>
		<edge from-layer="1363" from-port="1" to-layer="1364" to-port="4"/>
		<edge from-layer="1365" from-port="1" to-layer="1366" to-port="0"/>
		<edge from-layer="1366" from-port="1" to-layer="1371" to-port="0"/>
		<edge from-layer="1367" from-port="1" to-layer="1371" to-port="1"/>
		<edge from-layer="1368" from-port="1" to-layer="1371" to-port="2"/>
		<edge from-layer="1369" from-port="1" to-layer="1371" to-port="3"/>
		<edge from-layer="1370" from-port="1" to-layer="1371" to-port="4"/>
		<edge from-layer="852" from-port="5" to-layer="1372" to-port="0"/>
		<edge from-layer="1371" from-port="5" to-layer="1372" to-port="1"/>
		<edge from-layer="1372" from-port="2" to-layer="1374" to-port="0"/>
		<edge from-layer="1373" from-port="1" to-layer="1374" to-port="1"/>
		<edge from-layer="1374" from-port="2" to-layer="1375" to-port="0"/>
		<edge from-layer="1375" from-port="1" to-layer="1380" to-port="0"/>
		<edge from-layer="1376" from-port="1" to-layer="1380" to-port="1"/>
		<edge from-layer="1377" from-port="1" to-layer="1380" to-port="2"/>
		<edge from-layer="1378" from-port="1" to-layer="1380" to-port="3"/>
		<edge from-layer="1379" from-port="1" to-layer="1380" to-port="4"/>
		<edge from-layer="1381" from-port="1" to-layer="1382" to-port="0"/>
		<edge from-layer="1382" from-port="1" to-layer="1387" to-port="0"/>
		<edge from-layer="1383" from-port="1" to-layer="1387" to-port="1"/>
		<edge from-layer="1384" from-port="1" to-layer="1387" to-port="2"/>
		<edge from-layer="1385" from-port="1" to-layer="1387" to-port="3"/>
		<edge from-layer="1386" from-port="1" to-layer="1387" to-port="4"/>
		<edge from-layer="852" from-port="5" to-layer="1388" to-port="0"/>
		<edge from-layer="1387" from-port="5" to-layer="1388" to-port="1"/>
		<edge from-layer="1388" from-port="2" to-layer="1390" to-port="0"/>
		<edge from-layer="1389" from-port="1" to-layer="1390" to-port="1"/>
		<edge from-layer="1390" from-port="2" to-layer="1391" to-port="0"/>
		<edge from-layer="1391" from-port="1" to-layer="1396" to-port="0"/>
		<edge from-layer="1392" from-port="1" to-layer="1396" to-port="1"/>
		<edge from-layer="1393" from-port="1" to-layer="1396" to-port="2"/>
		<edge from-layer="1394" from-port="1" to-layer="1396" to-port="3"/>
		<edge from-layer="1395" from-port="1" to-layer="1396" to-port="4"/>
		<edge from-layer="196" from-port="5" to-layer="1397" to-port="0"/>
		<edge from-layer="212" from-port="5" to-layer="1397" to-port="1"/>
		<edge from-layer="228" from-port="5" to-layer="1397" to-port="2"/>
		<edge from-layer="244" from-port="5" to-layer="1397" to-port="3"/>
		<edge from-layer="276" from-port="5" to-layer="1397" to-port="4"/>
		<edge from-layer="292" from-port="5" to-layer="1397" to-port="5"/>
		<edge from-layer="308" from-port="5" to-layer="1397" to-port="6"/>
		<edge from-layer="324" from-port="5" to-layer="1397" to-port="7"/>
		<edge from-layer="356" from-port="5" to-layer="1397" to-port="8"/>
		<edge from-layer="372" from-port="5" to-layer="1397" to-port="9"/>
		<edge from-layer="388" from-port="5" to-layer="1397" to-port="10"/>
		<edge from-layer="404" from-port="5" to-layer="1397" to-port="11"/>
		<edge from-layer="420" from-port="5" to-layer="1397" to-port="12"/>
		<edge from-layer="436" from-port="5" to-layer="1397" to-port="13"/>
		<edge from-layer="452" from-port="5" to-layer="1397" to-port="14"/>
		<edge from-layer="468" from-port="5" to-layer="1397" to-port="15"/>
		<edge from-layer="500" from-port="5" to-layer="1397" to-port="16"/>
		<edge from-layer="516" from-port="5" to-layer="1397" to-port="17"/>
		<edge from-layer="532" from-port="5" to-layer="1397" to-port="18"/>
		<edge from-layer="548" from-port="5" to-layer="1397" to-port="19"/>
		<edge from-layer="564" from-port="5" to-layer="1397" to-port="20"/>
		<edge from-layer="580" from-port="5" to-layer="1397" to-port="21"/>
		<edge from-layer="596" from-port="5" to-layer="1397" to-port="22"/>
		<edge from-layer="612" from-port="5" to-layer="1397" to-port="23"/>
		<edge from-layer="644" from-port="5" to-layer="1397" to-port="24"/>
		<edge from-layer="660" from-port="5" to-layer="1397" to-port="25"/>
		<edge from-layer="676" from-port="5" to-layer="1397" to-port="26"/>
		<edge from-layer="692" from-port="5" to-layer="1397" to-port="27"/>
		<edge from-layer="708" from-port="5" to-layer="1397" to-port="28"/>
		<edge from-layer="724" from-port="5" to-layer="1397" to-port="29"/>
		<edge from-layer="756" from-port="5" to-layer="1397" to-port="30"/>
		<edge from-layer="772" from-port="5" to-layer="1397" to-port="31"/>
		<edge from-layer="788" from-port="5" to-layer="1397" to-port="32"/>
		<edge from-layer="804" from-port="5" to-layer="1397" to-port="33"/>
		<edge from-layer="820" from-port="5" to-layer="1397" to-port="34"/>
		<edge from-layer="836" from-port="5" to-layer="1397" to-port="35"/>
		<edge from-layer="868" from-port="5" to-layer="1397" to-port="36"/>
		<edge from-layer="884" from-port="5" to-layer="1397" to-port="37"/>
		<edge from-layer="900" from-port="5" to-layer="1397" to-port="38"/>
		<edge from-layer="916" from-port="5" to-layer="1397" to-port="39"/>
		<edge from-layer="932" from-port="5" to-layer="1397" to-port="40"/>
		<edge from-layer="948" from-port="5" to-layer="1397" to-port="41"/>
		<edge from-layer="964" from-port="5" to-layer="1397" to-port="42"/>
		<edge from-layer="980" from-port="5" to-layer="1397" to-port="43"/>
		<edge from-layer="996" from-port="5" to-layer="1397" to-port="44"/>
		<edge from-layer="1012" from-port="5" to-layer="1397" to-port="45"/>
		<edge from-layer="1028" from-port="5" to-layer="1397" to-port="46"/>
		<edge from-layer="1044" from-port="5" to-layer="1397" to-port="47"/>
		<edge from-layer="1060" from-port="5" to-layer="1397" to-port="48"/>
		<edge from-layer="1076" from-port="5" to-layer="1397" to-port="49"/>
		<edge from-layer="1092" from-port="5" to-layer="1397" to-port="50"/>
		<edge from-layer="1108" from-port="5" to-layer="1397" to-port="51"/>
		<edge from-layer="1124" from-port="5" to-layer="1397" to-port="52"/>
		<edge from-layer="1140" from-port="5" to-layer="1397" to-port="53"/>
		<edge from-layer="1156" from-port="5" to-layer="1397" to-port="54"/>
		<edge from-layer="1172" from-port="5" to-layer="1397" to-port="55"/>
		<edge from-layer="1188" from-port="5" to-layer="1397" to-port="56"/>
		<edge from-layer="1204" from-port="5" to-layer="1397" to-port="57"/>
		<edge from-layer="1220" from-port="5" to-layer="1397" to-port="58"/>
		<edge from-layer="1236" from-port="5" to-layer="1397" to-port="59"/>
		<edge from-layer="1252" from-port="5" to-layer="1397" to-port="60"/>
		<edge from-layer="1268" from-port="5" to-layer="1397" to-port="61"/>
		<edge from-layer="1284" from-port="5" to-layer="1397" to-port="62"/>
		<edge from-layer="1300" from-port="5" to-layer="1397" to-port="63"/>
		<edge from-layer="1316" from-port="5" to-layer="1397" to-port="64"/>
		<edge from-layer="1332" from-port="5" to-layer="1397" to-port="65"/>
		<edge from-layer="1348" from-port="5" to-layer="1397" to-port="66"/>
		<edge from-layer="1364" from-port="5" to-layer="1397" to-port="67"/>
		<edge from-layer="1380" from-port="5" to-layer="1397" to-port="68"/>
		<edge from-layer="1396" from-port="5" to-layer="1397" to-port="69"/>
		<edge from-layer="1398" from-port="1" to-layer="1399" to-port="0"/>
		<edge from-layer="1399" from-port="1" to-layer="1404" to-port="0"/>
		<edge from-layer="1400" from-port="1" to-layer="1404" to-port="1"/>
		<edge from-layer="1401" from-port="1" to-layer="1404" to-port="2"/>
		<edge from-layer="1402" from-port="1" to-layer="1404" to-port="3"/>
		<edge from-layer="1403" from-port="1" to-layer="1404" to-port="4"/>
		<edge from-layer="1397" from-port="70" to-layer="1405" to-port="0"/>
		<edge from-layer="1404" from-port="5" to-layer="1405" to-port="1"/>
		<edge from-layer="1405" from-port="2" to-layer="1407" to-port="0"/>
		<edge from-layer="1406" from-port="1" to-layer="1407" to-port="1"/>
		<edge from-layer="1407" from-port="2" to-layer="1408" to-port="0"/>
		<edge from-layer="1408" from-port="1" to-layer="1410" to-port="0"/>
		<edge from-layer="1409" from-port="1" to-layer="1410" to-port="1"/>
		<edge from-layer="1410" from-port="2" to-layer="1412" to-port="0"/>
		<edge from-layer="1411" from-port="1" to-layer="1412" to-port="1"/>
		<edge from-layer="1412" from-port="2" to-layer="1417" to-port="0"/>
		<edge from-layer="1413" from-port="1" to-layer="1417" to-port="1"/>
		<edge from-layer="1414" from-port="1" to-layer="1417" to-port="2"/>
		<edge from-layer="1415" from-port="1" to-layer="1417" to-port="3"/>
		<edge from-layer="1416" from-port="1" to-layer="1417" to-port="4"/>
		<edge from-layer="1418" from-port="1" to-layer="1419" to-port="0"/>
		<edge from-layer="1419" from-port="1" to-layer="1424" to-port="0"/>
		<edge from-layer="1420" from-port="1" to-layer="1424" to-port="1"/>
		<edge from-layer="1421" from-port="1" to-layer="1424" to-port="2"/>
		<edge from-layer="1422" from-port="1" to-layer="1424" to-port="3"/>
		<edge from-layer="1423" from-port="1" to-layer="1424" to-port="4"/>
		<edge from-layer="1417" from-port="5" to-layer="1425" to-port="0"/>
		<edge from-layer="1424" from-port="5" to-layer="1425" to-port="1"/>
		<edge from-layer="1425" from-port="2" to-layer="1427" to-port="0"/>
		<edge from-layer="1426" from-port="1" to-layer="1427" to-port="1"/>
		<edge from-layer="1427" from-port="2" to-layer="1428" to-port="0"/>
		<edge from-layer="1428" from-port="1" to-layer="1430" to-port="0"/>
		<edge from-layer="1429" from-port="1" to-layer="1430" to-port="1"/>
		<edge from-layer="1430" from-port="2" to-layer="1432" to-port="0"/>
		<edge from-layer="1431" from-port="1" to-layer="1432" to-port="1"/>
		<edge from-layer="1432" from-port="2" to-layer="1437" to-port="0"/>
		<edge from-layer="1433" from-port="1" to-layer="1437" to-port="1"/>
		<edge from-layer="1434" from-port="1" to-layer="1437" to-port="2"/>
		<edge from-layer="1435" from-port="1" to-layer="1437" to-port="3"/>
		<edge from-layer="1436" from-port="1" to-layer="1437" to-port="4"/>
		<edge from-layer="1438" from-port="1" to-layer="1439" to-port="0"/>
		<edge from-layer="1439" from-port="1" to-layer="1444" to-port="0"/>
		<edge from-layer="1440" from-port="1" to-layer="1444" to-port="1"/>
		<edge from-layer="1441" from-port="1" to-layer="1444" to-port="2"/>
		<edge from-layer="1442" from-port="1" to-layer="1444" to-port="3"/>
		<edge from-layer="1443" from-port="1" to-layer="1444" to-port="4"/>
		<edge from-layer="1437" from-port="5" to-layer="1445" to-port="0"/>
		<edge from-layer="1444" from-port="5" to-layer="1445" to-port="1"/>
		<edge from-layer="1445" from-port="2" to-layer="1447" to-port="0"/>
		<edge from-layer="1446" from-port="1" to-layer="1447" to-port="1"/>
		<edge from-layer="1447" from-port="2" to-layer="1449" to-port="0"/>
		<edge from-layer="1448" from-port="1" to-layer="1449" to-port="1"/>
		<edge from-layer="1449" from-port="2" to-layer="1450" to-port="0"/>
	</edges>
	<meta_data>
		<MO_version value="unknown version"/>
		<cli_parameters>
			<caffe_parser_path value="DIR"/>
			<data_type value="FP16"/>
			<disable_nhwc_to_nchw value="False"/>
			<disable_omitting_optional value="False"/>
			<disable_resnet_optimization value="False"/>
			<disable_weights_compression value="False"/>
			<enable_concat_optimization value="False"/>
			<enable_flattening_nested_params value="False"/>
			<enable_ssd_gluoncv value="False"/>
			<extensions value="DIR"/>
			<framework value="caffe"/>
			<freeze_placeholder_with_value value="{}"/>
			<generate_deprecated_IR_V7 value="False"/>
			<input value="data"/>
			<input_model value="DIR/facial-landmarks-35-adas-0002.caffemodel"/>
			<input_model_is_text value="False"/>
			<input_proto value="DIR/facial-landmarks-35-adas-0002.prototxt"/>
			<input_shape value="[1,3,60,60]"/>
			<k value="DIR/CustomLayersMapping.xml"/>
			<keep_shape_ops value="True"/>
			<legacy_mxnet_model value="False"/>
			<log_level value="ERROR"/>
			<mean_scale_values value="{'data': {'mean': array([120., 110., 104.]), 'scale': array([255.])}}"/>
			<mean_values value="data[120.0,110.0,104.0]"/>
			<model_name value="facial-landmarks-35-adas-0002"/>
			<output value="['align_fc3']"/>
			<output_dir value="DIR"/>
			<placeholder_data_types value="{}"/>
			<placeholder_shapes value="{'data': array([ 1,  3, 60, 60])}"/>
			<progress value="False"/>
			<remove_memory value="False"/>
			<remove_output_softmax value="False"/>
			<reverse_input_channels value="False"/>
			<save_params_from_nd value="False"/>
			<scale_values value="data[255.0]"/>
			<silent value="False"/>
			<static_shape value="False"/>
			<stream_output value="False"/>
			<unset unset_cli_parameters="batch, counts, disable_fusing, disable_gfusing, finegrain_fusing, input_checkpoint, input_meta_graph, input_symbol, mean_file, mean_file_offsets, move_to_preprocess, nd_prefix_name, pretrained_model_name, saved_model_dir, saved_model_tags, scale, tensorboard_logdir, tensorflow_custom_layer_libraries, tensorflow_custom_operations_config_update, tensorflow_object_detection_api_pipeline_config, tensorflow_use_custom_operations_config, transformations_config"/>
		</cli_parameters>
	</meta_data>
	<quantization_parameters>
		<config>{
		'compression': {
			'algorithms': [
				{
					'name': 'DefaultQuantization',
					'params': {
						'preset': 'performance',
						'stat_subset_size': 300,
						'use_fast_bias': false
					}
				}
			],
			'target_device': 'CPU'
		},
		'engine': {
			'models': [
				{
					'name': 'facial-landmarks-35-adas-0002',
					'launchers': [
						{
							'framework': 'dlsdk',
							'adapter': 'landmarks_regression',
							'device': 'CPU'
						}
					],
					'datasets': [
						{
							'name': 'facial_landmarks_35',
							'data_source': 'PATH',
							'annotation_conversion': {
								'converter': 'facial_landmarks_35',
								'data_dir': 'PATH'
							},
							'annotation': 'facial_landmarks_35.pickle',
							'metrics': [
								{
									'type': 'normed_error',
									'calculate_std': true,
									'percentile': 90,
									'presenter': 'print_vector'
								}
							]
						}
					]
				}
			],
			'stat_requests_number': null,
			'eval_requests_number': null,
			'type': 'accuracy_checker'
		}
	}</config>
		<version value="1.0"/>
		<cli_params value="{'evaluate': False, 'output_dir': 'PATH', 'direct_dump': True, 'log_level': 'INFO', 'pbar': False, 'stream_output': False, 'keep_uncompressed_weights': False}"/>
	</quantization_parameters>
</net>
